results/Car/Car/Car-64.onnx (onnx, 95920 bytes, 8 tensors)

action_model._continuous_distribution.log_sigma f4 [1, 2]
0.0 0.0
00000000: 0000 0000 0000 0000

action_model._continuous_distribution.mu.bias f4 [2]
0.0 0.0
00000000: 0000 0000 0000 0000

action_model._continuous_distribution.mu.weight f4 [2, 128]
0.043309435 -0.017561637 -0.00432794 0.0072179376 -0.00074322266 -0.001169642 0.0066950256 0.014208848
0.0061890446 -0.0047792573 0.011832592 -0.0026883497 0.017036846 0.01516216 -0.016103541 -0.012259542
0.00021340349 0.01060377 0.020793034 -0.0026874496 0.01577988 -0.020157002 0.012145377 -0.018391034
0.015429336 0.006068393 -0.031113753 -0.022939168 0.013555529 0.022149136 -0.007965493 0.014796517
0.022098651 0.0030379423 -0.004791073 0.009895174 -0.027175862 0.0069366554 0.0041373097 -0.0023018867
-0.02353761 0.00618548 -0.03849102 0.012566067 0.015242243 -0.01485416 -0.004630484 0.019763602
5.3089414e-05 0.0016818031 0.008769086 0.014725654 -0.009253088 0.006290562 -0.026806979 0.0069226855
0.001315031 -0.04729181 0.0064439834 -0.017656533 -0.0071373372 0.0012381537 -0.017575283 -0.007259562
-0.03304022 -0.00049202674 -0.014723936 0.0022122574 -0.0026395896 0.018094098 -0.008401996 0.0032737758
-0.021245757 -0.019608058 0.025046015 0.020960568 -0.01031066 0.0049217097 -0.001984588 0.005991122
0.0007551093 -0.0026537622 -0.002284874 -0.0026725114 0.022634828 0.027048586 0.03248812 -0.014674186
0.0024490561 -0.0044438657 -0.00108577 -0.013663406 0.0024853244 0.0023652005 0.010201542 -0.0019057967
-0.01884654 0.015863849 0.006992796 -0.02248331 0.0013851764 0.0015319892 -0.0017145791 0.034171287
0.038013447 -0.00030215876 -0.027555315 -0.028231168 -0.011108883 -0.0034102069 0.011675858 0.01507657
-0.00024796088 0.0054097264 -0.0013658119 0.016706947 0.02101898 -0.01584536 -0.013467208 0.015139066
-0.017913014 0.021439997 0.009598401 0.01917064 -0.006342314 -0.0015005738 -0.008095899 -0.014413136
-0.029866016 -0.011074717 -0.019534506 -0.0015254015 0.012433625 -0.0018402238 -0.018864607 0.0007775479
-0.007523524 0.037757028 0.0071173445 -0.020307463 -0.0007220184 -0.017915757 -0.00037511202 0.007983834
0.0108479 -0.008171434 0.01827546 0.022730796 0.023729157 0.0010036541 0.0013405335 0.009925091
-0.016185803 -0.00583321 0.05886013 0.018102707 -0.01074637 0.00276617 0.00641491 -0.003665963
-0.008412203 0.018942116 0.0014072576 -0.0066462304 -0.025995284 -0.026089007 -0.021175262 0.004626185
-0.0047212057 -0.025972554 0.0010935694 -0.016663434 0.0225953 -0.04365451 0.0033239406 -0.01864214
0.045158785 0.018186029 -0.018346867 0.015882008 -0.030729104 -0.0031860329 0.019612083 0.0060438006
0.013287768 0.002835946 -0.028890437 0.015507179 -0.011455667 -0.010816549 0.000977462 0.0066924803
0.009210256 -0.0029176257 -0.021795675 -0.00968542 -0.012538947 0.012856496 -0.029175118 -0.0091713695
0.03203669 0.015054064 -0.01692981 0.008147761 0.041367214 -0.0006884487 -0.0043990132 -0.002539384
-0.0057667354 -0.02996031 -0.04480224 0.016749777 -0.0046610045 0.027266229 0.0021797516 0.018123245
-0.0049048522 0.004413757 0.016166156 -0.027937183 -0.0027478584 0.013569111 0.024742616 0.027343934
-0.009779935 0.024452804 0.0070087025 0.03686287 -0.0288439 -0.004682463 -0.020607343 -0.022951275
-0.0043021822 -0.0050307172 0.022465738 -0.004287609 -0.0066647315 0.026023392 0.015519139 -0.00013288032
-0.0152016925 0.011493353 0.015508681 -0.022990229 -0.014633401 0.0017796829 -0.00899843 0.005975059
0.0003530935 -0.028096024 0.022806872 -0.0060373694 0.012012744 -0.0016157255 0.0023340515 0.022057822
00000000: 3c65 313d 6cdd 8fbc 64d1 8dbb 7384 ec3b
00000010: d4d4 42ba ac4e 99ba f261 db3b 3acc 683c
00000020: 78cd ca3b 519b 9cbb 7ddd 413c 062f 30bb
00000030: db90 8b3c b56a 783c 93eb 83bc 3fdc 48bc
00000040: 10c5 5f39 6fbb 2d3c 2756 aa3c ec1f 30bb
00000050: cf44 813c 4c20 a5bc 67fd 463c cba8 96bc
00000060: 53cb 7c3c 5fd9 c63b 45e2 febc ecea bbbc
00000070: 0218 5e3c 1b72 b53c b381 02bc 176d 723c
00000080: 3b08 b53c 3718 473b 6ffe 9cbb 5e1f 223c
00000090: ea9f debc e24c e33b 4592 873b 40db 16bb
000000a0: f2d1 c0bc 91af ca3b c3a8 1dbd e8e1 4d3c
000000b0: 9aba 793c dd5e 73bc 51bb 97bb 47e7 a13c
000000c0: 53ac 5e38 f36f dc3a 36ac 0f3c df43 713c
000000d0: 449a 17bc 0f21 ce3b 4f9a dbbc b2d7 e23b
000000e0: 1e5d ac3a 0fb5 41bd 0d28 d33b 6fa4 90bc
000000f0: 53e0 e9bb 8b49 a23a 0afa 8fbc 9fe1 edbb
00000100: 2f55 07bd 5bfb 00ba aa3c 71bc 85fb 103b
00000110: f7fc 2cbb 133a 943c 87a8 09bc d88c 563b
00000120: 950b aebc 14a1 a0bc 4d2d cd3c 7fb5 ab3c
00000130: 0bee 28bc 4b46 a13b dd0f 02bb 2d51 c43b
00000140: 87f2 453a beea 2dbb d3bd 15bb 4d25 2fbb
00000150: ad6c b93c ff94 dd3c 4312 053d ff6b 70bc
00000160: 5880 203b d99d 91bb 6550 8eba 7adc 5fbc
00000170: d3e0 223b 7b01 1b3b 5e24 273c edcb f9ba
00000180: 0f64 9abc e7f4 813c d323 e53b eb2e b8bc
00000190: cf8e b53a 07cd c83a babb e0ba 31f7 0b3d
000001a0: fdb3 1b3d 106b 9eb9 afbb e1bc 0d45 e7bc
000001b0: 0802 36bc c77d 5fbb 194c 3f3c b803 773c
000001c0: bf00 82b9 1344 b13b 0b05 b3ba 02dd 883c
000001d0: ff2f ac3c 21ce 81bc 90a5 5cbc d809 783c
000001e0: 50be 92bc efa2 af3c 9d42 1d3c bf0b 9d3c
000001f0: 30d3 cfbb e7ae c4ba a9a4 04bc 1325 6cbc
00000200: 93a9 f4bc bb72 35bc d406 a0bc fbef c7ba
00000210: 67b6 4b3c aa33 f1ba f389 9abc 5bd4 4b3a
00000220: e587 f6bb 1da7 1a3d 9d38 e93b d65b a6bc
00000230: d645 3dba 11c4 92bc afaa c4b9 a0ce 023c
00000240: 64bb 313c 7ae1 05bc 6bb6 953c ef35 ba3c
00000250: a663 c23c 0b8d 833a d7b4 af3a d99c 223c
00000260: 1798 84bc 8324 bfbb 5217 713d 214c 943c
00000270: 8b11 30bc a248 353b 2a34 d23b a740 70bb
00000280: 56d3 09bc 7f2c 9b3c bb73 b83a 9fc8 d9bb
00000290: 10f4 d4bc 9db8 d5bc be77 adbc 4197 973b
000002a0: 58b4 9abb 65c4 d4bc 1a56 8f3a c181 88bc
000002b0: c719 b93c 12cf 32bd 78d6 593b 67b7 98bc
000002c0: 6bf8 383d defa 943c 2b4c 96bc fc1a 823c
000002d0: 9abb fbbc c3cc 50bb 85a9 a03c 130b c63b
000002e0: f0b4 593c 47db 393b a3ab ecbc d311 7e3c
000002f0: 8db0 3bbc e537 31bc 2f1e 803a 984c db3b
00000300: 9de6 163c a335 3fbb d88c b2bc 99af 1ebc
00000310: 2870 4dbc 0da4 523c a800 efbc 8343 16bc
00000320: e738 033d 52a5 763c 63b0 8abc 307e 053c
00000330: ab70 293d 0379 34ba 9925 90bb cb6b 26bb
00000340: e2f6 bcbb 536f f5bc 8e82 37bd d436 893c
00000350: 57bb 98bb 6d5d df3c 2ada 0e3b 3377 943c
00000360: e2b8 a0bb 47a1 903b e36e 843c 85dc e4bc
00000370: 6a15 34bb fa50 5e3c 07b1 ca3c 6300 e03c
00000380: 053c 20bc 3f51 c83c 42a9 e53b 85fd 163d
00000390: 0b4a ecbc 596f 99bb bbd0 a8bc 5004 bcbc
000003a0: 52f9 8cbb b7d8 a4bb 110a b83c 127f 8cbb
000003b0: d263 dabb 022f d53c fd43 7e3c ca55 0bb9
000003c0: 8510 79bc 9e4e 3c3c 1f18 7e3c 0156 bcbc
000003d0: efc0 6fbc 4044 e93a 276e 13bc 6dca c33b
000003e0: 681f b939 a229 e6bc 7ad5 ba3c 20d5 c5bb
000003f0: 1ad1 443c c0c6 d3ba e3f6 183b 9bb2 b43c

action_model._discrete_distribution.branches.0.weight f4 [1, 128]
0.012443501 0.011325481 -0.013355829 -0.0092052175 -0.00087625824 -0.018270718 0.009515256 0.015312615
-0.0027730106 0.0042349407 0.005381881 -0.0044096196 0.01280593 -0.0014166216 -0.0027934604 0.01392687
-0.007852889 0.0024343664 -0.010521721 -0.013671241 -0.01036173 0.007243009 0.00036982368 -0.0015070915
0.0012432857 0.0015943538 0.0018613903 -0.0033374962 -0.014766953 0.003593277 -0.0027064316 0.0076597095
-0.01990737 0.0030995852 0.018361399 -0.00053027767 -0.009178817 -0.011111989 -0.005707795 0.0020001668
-0.0043982635 -0.0042916047 0.0035434167 -0.013270793 0.013298648 0.0020589107 0.006286736 0.0081488285
-0.005846187 -0.0027805306 -0.014364761 0.0016773349 -0.006305527 -0.010321462 0.004705279 -0.0111395
0.008603207 -0.0046225386 0.006094655 0.00635345 0.0012423941 0.0023389987 0.0139378905 0.017084569
-0.006115774 -0.0052829445 0.005624332 -0.013296488 0.0074334033 0.011626249 -0.0030729412 -0.0031444281
0.009946647 0.004233291 -0.011814634 -0.0124573875 -0.007622284 -0.026406897 -0.014524007 0.010172921
0.006914788 -0.00076693034 -0.0031665184 0.01146394 -0.0033295383 0.0007701215 0.009032975 -0.0027591344
0.00846188 0.0022049153 -0.0037495475 0.003763979 0.006801816 -0.018199122 0.006602389 -0.007652988
0.009916875 0.009054444 0.007654743 -0.0139597235 -0.002608895 -0.0032761877 0.014406233 0.00633922
0.011436945 -0.005426994 -0.01622588 0.012245279 -0.01749166 -0.0050843153 -0.014126889 -0.014370181
0.010109416 -0.0019316964 -0.001530377 -0.012113045 -0.0064928434 0.001420827 0.005529783 -0.003156108
0.0069356547 0.003653852 0.0078024575 0.010458234 -0.020524487 0.0004991482 -0.003179383 -0.015646668
00000000: d3df 4b3c 838e 393c 68d2 5abc 7bd1 16bc
00000010: b2b4 65ba 79ac 95bc e0e5 1b3c c3e1 7a3c
00000020: 66bb 35bb 42c5 8a3b 7d5a b03b 927e 90bb
00000030: f7cf 513c efad b9ba 7d12 37bb 872d 643c
00000040: 67a9 00bc e489 1f3b 4c63 2cbc 57fd 5fbc
00000050: 3fc4 29bc c356 ed3b e5e4 c139 9989 c5ba
00000060: bff5 a23a a3f9 d03a e5f9 f33a e5b9 5abb
00000070: 17f1 71bc 2f7d 6b3b 635e 31bb 4dfe fa3b
00000080: c814 a3bc 6922 4b3b a56a 963c 5502 0bba
00000090: c062 16bc 0f0f 36bc 7408 bbbb 3b15 033b
000000a0: 4f1f 90bb 97a0 8cbb ab38 683b bd6d 59bc
000000b0: 93e2 593c caee 063b f700 ce3b aa82 053c
000000c0: 5f91 bfbb 9039 36bb 2d5a 6bbc 05da db3a
000000d0: 989e cebb 591b 29bc be2e 9a3b 7382 36bc
000000e0: 77f4 0c3c aa78 97bb acb5 c73b 9a30 d03b
000000f0: d4d7 a23a e349 193b c05b 643c f0f4 8b3c
00000100: d566 c8bb 8d1c adbb 514c b83b 83d9 59bc
00000110: e893 f33b 067c 3e3c 6663 49bb c012 4ebb
00000120: 43f7 223c 6bb7 8a3b 2b92 41bc 121a 4cbc
00000130: 5ac4 f9bb 4753 d8bc 1af6 6dbc 53ac 263c
00000140: 7295 e23b d30b 49ba 5d85 4fbb 40d3 3b3c
00000150: 6234 5abb fbe1 493a 0bff 133c 98d2 34bb
00000160: b2a3 0a3c 5780 103b f8ba 75bb 17ad 763b
00000170: c5e1 de3b 5316 95bc da58 d83b ebc5 fabb
00000180: 637a 223c 1759 143c a3d4 fa3b 53b7 64bc
00000190: fff9 2abb 4fb5 56bb 1f08 6c3c 3bb9 cf3b
000001a0: 0662 3b3c edd4 b1bb 23ec 84bc 6ca0 483c
000001b0: ab4a 8fbc 549a a6bb 7874 67bc e870 6bbc
000001c0: f7a1 253c fa30 fdba ee96 c8ba cb75 46bc
000001d0: ebc1 d4bb 0b3b ba3a 2f33 b53b b5d6 4ebb
000001e0: 7d44 e33b 7775 6f3b c2ab ff3b 0359 2b3c
000001f0: f822 a8bc 45d9 023a 325d 50bb 712d 80bc

network_body._body_endoder.seq_layers.0.bias f4 [128]
0.0 0.0 0.0 0.0 0.0 0.0 0.0 0.0
0.0 0.0 0.0 0.0 0.0 0.0 0.0 0.0
0.0 0.0 0.0 0.0 0.0 0.0 0.0 0.0
0.0 0.0 0.0 0.0 0.0 0.0 0.0 0.0
0.0 0.0 0.0 0.0 0.0 0.0 0.0 0.0
0.0 0.0 0.0 0.0 0.0 0.0 0.0 0.0
0.0 0.0 0.0 0.0 0.0 0.0 0.0 0.0
0.0 0.0 0.0 0.0 0.0 0.0 0.0 0.0
0.0 0.0 0.0 0.0 0.0 0.0 0.0 0.0
0.0 0.0 0.0 0.0 0.0 0.0 0.0 0.0
0.0 0.0 0.0 0.0 0.0 0.0 0.0 0.0
0.0 0.0 0.0 0.0 0.0 0.0 0.0 0.0
0.0 0.0 0.0 0.0 0.0 0.0 0.0 0.0
0.0 0.0 0.0 0.0 0.0 0.0 0.0 0.0
0.0 0.0 0.0 0.0 0.0 0.0 0.0 0.0
0.0 0.0 0.0 0.0 0.0 0.0 0.0 0.0
00000000: 0000 0000 0000 0000 0000 0000 0000 0000
00000010: 0000 0000 0000 0000 0000 0000 0000 0000
00000020: 0000 0000 0000 0000 0000 0000 0000 0000
00000030: 0000 0000 0000 0000 0000 0000 0000 0000
00000040: 0000 0000 0000 0000 0000 0000 0000 0000
00000050: 0000 0000 0000 0000 0000 0000 0000 0000
00000060: 0000 0000 0000 0000 0000 0000 0000 0000
00000070: 0000 0000 0000 0000 0000 0000 0000 0000
00000080: 0000 0000 0000 0000 0000 0000 0000 0000
00000090: 0000 0000 0000 0000 0000 0000 0000 0000
000000a0: 0000 0000 0000 0000 0000 0000 0000 0000
000000b0: 0000 0000 0000 0000 0000 0000 0000 0000
000000c0: 0000 0000 0000 0000 0000 0000 0000 0000
000000d0: 0000 0000 0000 0000 0000 0000 0000 0000
000000e0: 0000 0000 0000 0000 0000 0000 0000 0000
000000f0: 0000 0000 0000 0000 0000 0000 0000 0000
00000100: 0000 0000 0000 0000 0000 0000 0000 0000
00000110: 0000 0000 0000 0000 0000 0000 0000 0000
00000120: 0000 0000 0000 0000 0000 0000 0000 0000
00000130: 0000 0000 0000 0000 0000 0000 0000 0000
00000140: 0000 0000 0000 0000 0000 0000 0000 0000
00000150: 0000 0000 0000 0000 0000 0000 0000 0000
00000160: 0000 0000 0000 0000 0000 0000 0000 0000
00000170: 0000 0000 0000 0000 0000 0000 0000 0000
00000180: 0000 0000 0000 0000 0000 0000 0000 0000
00000190: 0000 0000 0000 0000 0000 0000 0000 0000
000001a0: 0000 0000 0000 0000 0000 0000 0000 0000
000001b0: 0000 0000 0000 0000 0000 0000 0000 0000
000001c0: 0000 0000 0000 0000 0000 0000 0000 0000
000001d0: 0000 0000 0000 0000 0000 0000 0000 0000
000001e0: 0000 0000 0000 0000 0000 0000 0000 0000
000001f0: 0000 0000 0000 0000 0000 0000 0000 0000

network_body._body_endoder.seq_layers.0.weight f4 [128, 48]
-0.23318669 0.05299091 -0.0016535455 0.1532984 0.05362379 0.078621596 -0.17484769 -0.12946875
-0.12299802 0.2104808 -0.007554455 0.009513991 -0.23624092 -0.13915282 -0.0678624 -0.028382841
0.08505845 -0.014156779 -0.06851454 0.26717585 -0.13689697 -0.08375043 0.26546875 -0.007619458
0.21848175 0.22963041 0.00019675131 -0.12727818 0.015064039 0.15426536 -0.07088126 0.010268003
-0.009337323 0.081515215 0.15541989 -0.039379958 -0.013504757 -0.091438346 0.09619182 -0.13079672
-0.049987327 -0.015683271 0.05848137 -0.10719633 0.0102845 0.101908095 0.33923656 -0.06284865
0.13961732 0.32342777 -0.0959974 0.11449884 -0.14502051 0.045899604 -0.112647355 0.12147887
-0.04640428 -0.090747714 -0.09962951 -0.036376692 0.09128334 -0.014775371 0.051150568 -0.15389383
-0.11953075 -0.19597462 0.2591685 0.26740605 -0.06272526 -0.048735857 -0.0058092815 0.18860888
0.09957551 -0.030574314 0.072160654 -0.2005695 -0.1373987 -0.09534143 -0.06852589 -0.10259076
-0.16901605 0.1905784 0.013556338 -0.11015336 0.07851448 -0.14799981 0.052581515 -0.12163781
0.04359161 -0.0887419 -0.15241553 -0.048039872 0.021336544 0.096357144 -0.022153681 0.19972995
0.07969284 0.09480857 0.22933108 -0.16826862 0.021818228 0.31893054 0.06483454 -0.18044826
0.39840525 -0.085810736 -0.14351842 0.06699335 0.10160286 -0.08421839 -0.07989498 -0.2739036
-0.15503198 -0.001036594 -0.10783213 -0.23433259 0.10108766 4.478151e-05 -0.2041903 0.002561612
-0.045228913 -0.011086414 -0.040700097 -0.039630767 -0.03141554 0.12573649 -0.1734982 0.22340225
-0.12142303 -0.17515112 0.2861149 -0.062483966 -0.02958338 0.04093463 0.1979837 0.09220139
0.06264625 -0.088140905 0.12836215 0.08422401 0.18788879 0.09923043 0.12207113 -0.051837012
-0.12386295 -0.11089086 0.06957088 0.10084527 -0.04953259 -0.098566115 0.18186313 0.008504852
0.08546603 -0.008946709 0.109162614 -0.117309816 0.100509875 -0.00715229 -0.07563759 -0.026972268
-0.02316988 -0.007870031 -0.026989164 0.16941349 0.06640526 0.03735189 -0.015529747 0.025309976
-0.026719138 0.14847547 0.00012514093 0.121234104 -0.06539087 -0.19752625 0.028263416 -0.10191179
-0.29183125 -0.18873669 0.17926544 0.17119598 0.0037688077 -0.16694525 0.058829222 -0.2801485
0.12422359 -0.2556483 -0.17191595 -0.15742014 0.16752228 0.23572946 0.13989422 -0.19739114
-0.1442976 0.03807435 -0.09487702 -0.06321269 -0.072334155 -0.092871696 -0.23681524 0.103222944
0.1259843 -0.032155655 0.06634281 -0.15194999 0.13770577 -0.06971399 -0.10456442 -0.17458446
0.19332266 -0.114389524 -0.07984828 0.0210694 -0.13583747 0.16192298 -0.12404139 0.0014428508
-0.10374635 0.48056656 0.10524684 0.113122106 0.24101382 -0.14588727 -0.070014164 -0.009597162
-0.14651833 0.118887626 0.02495905 -0.13827735 0.1976536 0.22452812 -0.04092889 -0.18729575
0.050865553 -0.016249739 -0.202048 -0.30076894 -0.0056753843 0.14583565 -0.039715618 0.044733804
-0.15939522 0.15162517 0.020629972 -0.12758146 0.14266324 0.050997805 0.108665265 0.032762755
-0.03318785 0.2580381 -0.18228269 -0.1989324 0.24624637 0.08507631 0.075858355 0.03648995
00000000: 7ec8 6ebe ff0c 593d c8bb d8ba 41fa 1c3e
00000010: 9fa4 5b3d 5c04 a13d 460b 33be 7593 04be
00000020: 63e6 fbbd 4788 573e 5d8b f7bb 92e0 1b3c
00000030: 24e9 71be 147e 0ebe 71fb 8abd 2283 e8bc
00000040: 2033 ae3d d6f1 67bc 5a51 8cbd 46cb 883e
00000050: b82e 0cbe 5885 abbd 85eb 873e a5ac f9bb
00000060: aeb9 5f3e 3c24 6b3e 074f 4e39 3655 02be
00000070: 29cf 763c bdf7 1d3e 322a 91bd 203b 283c
00000080: 92fb 18bc 73f1 a63d 6426 1f3e e14c 21bd
00000090: 0e43 5dbc 0744 bbbd 3800 c53d 93ef 05be
000000a0: 83bf 4cbd 347a 80bc 298a 6f3d c089 dbbd
000000b0: 5280 283c 31b5 d03d 6ab0 ad3e cbb6 80bd
000000c0: d8f7 0e3e 5398 a53e 499a c4bd 5e7e ea3d
000000d0: 4280 14be 3901 3c3d a8b3 e6bd eac9 f83d
000000e0: 6a12 3ebd f0d9 b9bd 8e0a ccbd baff 14bd
000000f0: c2f2 ba3d 6614 72bc 4283 513d 5896 1dbe
00000100: 8acc f4bd 92ad 48be bcb1 843e 72e9 883e
00000110: 1a76 80bd 409f 47bd c95b bebb b022 413e
00000120: 3fee cb3d fc76 fabc f7c8 933d 1762 4dbe
00000130: 3fb2 0cbe 5e42 c3bd 4d57 8cbd 1b1b d2bd
00000140: 8b12 2dbe fc26 433e 671b 5e3c 1698 e1bd
00000150: 33cc a03d 438d 17be b75f 573d 3e1d f9bd
00000160: 1e8d 323d 50be b5bd d112 1cbe 75c5 44bd
00000170: fac9 ae3c e556 c53d a37b b5bc 0286 4c3e
00000180: 0036 a33d ff2a c23d c4d5 6a3e 9c4e 2cbe
00000190: 24bc b23c dd4a a33e f9c7 843d 6ec7 38be
000001a0: c6fb cb3e 8abd afbd 7ef6 12be cf33 893d
000001b0: 2915 d03d b17a acbd fb9f a3bd 183d 8cbe
000001c0: b4c0 1ebe 53de 87ba 17d7 dcbd e2f4 6fbe
000001d0: 0c07 cf3d c8d3 3b38 4317 51be b8e0 273b
000001e0: f441 39bd caa3 35bc 25b5 26bd df53 22bd
000001f0: 95ad 00bd 11c1 003e 83a9 31be 8fc3 643e
00000200: a3ac f8bd d15a 33be a77d 923e 30ef 7fbd
00000210: d858 f2bc 12ab 273d 3dbc 4a3e 15d4 bc3d
00000220: ad4c 803d 3883 b4bd 5e71 033e a37d ac3d
00000230: eb65 403e 5339 cb3d 6e00 fa3d 0c53 54bd
00000240: dcab fdbd bf1a e3bd 2d7b 8e3d f787 ce3d
00000250: afe2 4abd 08dd c9bd 543a 3a3e ef57 0b3c
00000260: d008 af3d 3895 12bc a690 df3d 2140 f0bd
00000270: 1fd8 cd3d c25d eabb e1e7 9abd f2f4 dcbc
00000280: c3ce bdbc 4df1 00bc 6118 ddbc bb7a 2d3e
00000290: 7bff 873d 4cfe 183d 7b70 7ebc de56 cf3c
000002a0: 18e2 dabc f409 183e 4338 0339 9649 f83d
000002b0: a6eb 85bd 5244 4abe ae88 e73c 21b7 d0bd
000002c0: e86a 95be 3144 41be 5c91 373e 004e 2f3e
000002d0: 1afe 763b b2f3 2abe e9f6 703d a06f 8fbe
000002e0: f068 fe3d 55e4 82be bc0a 30be bf32 21be
000002f0: f68a 2b3e 1063 713e 6e40 0f3e e720 4abe
00000300: c0c2 13be daf3 1b3d e24e c2bd a875 81bd
00000310: ee23 94bd 8433 bebd b27f 72be 8d66 d33d
00000320: 0702 013e a6b5 03bd bdde 873d c798 1bbe
00000330: be02 0d3e 35c6 8ebd df25 d6bd 45c6 32be
00000340: 60f6 453e 0e45 eabd 7f87 a3bd bc99 ac3c
00000350: fa18 0bbe 23cf 253e 6a09 febd 0a1e bd3a
00000360: f778 d4bd d20c f63e a88b d73d 90ac e73d
00000370: 54cc 763e 7963 15be 9663 8fbd 6a3d 1dbc
00000380: e708 16be 5b7b f33d ec76 cc3c 9498 0dbe
00000390: b565 4a3e b3ea 653e 0da5 27bd 75ca 3fbe
000003a0: 6658 503d 2c1e 85bc ace5 4ebe 63fe 99be
000003b0: 93f8 b9bb f155 153e d8ac 22bd cb3a 373d
000003c0: 8038 23be a143 1b3e 3000 a93c b7a4 02be
000003d0: 5016 123e 13e3 503d e58b de3d 3d32 063d
000003e0: fcef 07bd 921d 843e 50a8 3abe efb4 4bbe
000003f0: 0228 7c3e 7d3c ae3d a05b 9b3d 7c76 153d

network_body._body_endoder.seq_layers.2.bias f4 [128]
0.0 0.0 0.0 0.0 0.0 0.0 0.0 0.0
0.0 0.0 0.0 0.0 0.0 0.0 0.0 0.0
0.0 0.0 0.0 0.0 0.0 0.0 0.0 0.0
0.0 0.0 0.0 0.0 0.0 0.0 0.0 0.0
0.0 0.0 0.0 0.0 0.0 0.0 0.0 0.0
0.0 0.0 0.0 0.0 0.0 0.0 0.0 0.0
0.0 0.0 0.0 0.0 0.0 0.0 0.0 0.0
0.0 0.0 0.0 0.0 0.0 0.0 0.0 0.0
0.0 0.0 0.0 0.0 0.0 0.0 0.0 0.0
0.0 0.0 0.0 0.0 0.0 0.0 0.0 0.0
0.0 0.0 0.0 0.0 0.0 0.0 0.0 0.0
0.0 0.0 0.0 0.0 0.0 0.0 0.0 0.0
0.0 0.0 0.0 0.0 0.0 0.0 0.0 0.0
0.0 0.0 0.0 0.0 0.0 0.0 0.0 0.0
0.0 0.0 0.0 0.0 0.0 0.0 0.0 0.0
0.0 0.0 0.0 0.0 0.0 0.0 0.0 0.0
00000000: 0000 0000 0000 0000 0000 0000 0000 0000
00000010: 0000 0000 0000 0000 0000 0000 0000 0000
00000020: 0000 0000 0000 0000 0000 0000 0000 0000
00000030: 0000 0000 0000 0000 0000 0000 0000 0000
00000040: 0000 0000 0000 0000 0000 0000 0000 0000
00000050: 0000 0000 0000 0000 0000 0000 0000 0000
00000060: 0000 0000 0000 0000 0000 0000 0000 0000
00000070: 0000 0000 0000 0000 0000 0000 0000 0000
00000080: 0000 0000 0000 0000 0000 0000 0000 0000
00000090: 0000 0000 0000 0000 0000 0000 0000 0000
000000a0: 0000 0000 0000 0000 0000 0000 0000 0000
000000b0: 0000 0000 0000 0000 0000 0000 0000 0000
000000c0: 0000 0000 0000 0000 0000 0000 0000 0000
000000d0: 0000 0000 0000 0000 0000 0000 0000 0000
000000e0: 0000 0000 0000 0000 0000 0000 0000 0000
000000f0: 0000 0000 0000 0000 0000 0000 0000 0000
00000100: 0000 0000 0000 0000 0000 0000 0000 0000
00000110: 0000 0000 0000 0000 0000 0000 0000 0000
00000120: 0000 0000 0000 0000 0000 0000 0000 0000
00000130: 0000 0000 0000 0000 0000 0000 0000 0000
00000140: 0000 0000 0000 0000 0000 0000 0000 0000
00000150: 0000 0000 0000 0000 0000 0000 0000 0000
00000160: 0000 0000 0000 0000 0000 0000 0000 0000
00000170: 0000 0000 0000 0000 0000 0000 0000 0000
00000180: 0000 0000 0000 0000 0000 0000 0000 0000
00000190: 0000 0000 0000 0000 0000 0000 0000 0000
000001a0: 0000 0000 0000 0000 0000 0000 0000 0000
000001b0: 0000 0000 0000 0000 0000 0000 0000 0000
000001c0: 0000 0000 0000 0000 0000 0000 0000 0000
000001d0: 0000 0000 0000 0000 0000 0000 0000 0000
000001e0: 0000 0000 0000 0000 0000 0000 0000 0000
000001f0: 0000 0000 0000 0000 0000 0000 0000 0000

network_body._body_endoder.seq_layers.2.weight f4 [128, 128]
-0.028318528 -0.0020595575 -0.039470308 0.085561 -0.0015156394 -0.008016148 -0.03200408 0.1654007
-0.023021193 0.110799044 -0.0034085016 -0.038343586 -0.0024764186 0.022754177 0.013328681 -0.13595596
-0.09168355 0.084104925 -0.063190356 0.06544182 0.12727176 0.0071229916 -0.036931857 -0.11457344
0.015842384 -0.048193652 0.046753984 0.06593704 -0.014913948 -0.0018279786 0.12782085 -0.06800434
0.01577515 -0.0753107 0.011268936 0.024475854 -0.080937706 0.05244346 0.035628404 0.069919385
0.026923096 -0.12981068 0.042430002 -0.042112447 -0.0011650892 0.014781125 0.10414324 -0.21360536
-0.13409401 -0.05264313 -0.21162298 0.007183492 -0.019999646 0.16114287 0.029909177 0.23362862
-0.054260757 -0.05534314 -0.0035473774 -0.07455092 0.15123746 -0.11273481 -0.04176801 -0.0809147
-0.16573927 0.049299482 0.06775671 0.036115743 0.12849762 0.081896886 -0.03401883 -0.004869419
-0.0732217 0.11519661 0.08088266 0.016197145 -0.034975994 -0.026113594 -0.075017095 0.16400297
0.019862348 -0.013718518 0.064127855 0.05267394 0.13418087 0.076548435 0.058930706 0.03040604
-0.009252828 -0.040009532 -0.040969033 0.025908416 -0.075686865 0.012693021 -0.053544857 0.113877304
0.15160382 0.06743379 0.012433963 -0.110530384 -0.057335317 0.038723398 -0.05506832 -0.078062356
0.03110547 0.07536651 -0.0028618644 -0.10356222 -0.07210415 0.11257145 0.026612915 4.1124633e-05
-0.015702074 -0.032874152 0.05260213 0.029778162 -0.15965697 0.06750298 -0.07698375 -0.023208397
-0.0338113 0.1793172 -0.09072683 0.03823572 0.03623403 -0.09026695 0.12222728 0.04762354
0.072392106 0.14248185 -0.01637435 0.099183366 -0.16297066 0.042331412 -0.040814646 -0.013146999
0.046644334 0.1222468 0.0839443 0.021693554 0.019741572 0.015797924 -0.10047679 -0.064408325
0.017718343 -0.1607295 0.042858694 0.05868459 -0.056047384 -0.02866051 -0.11076096 0.10252937
0.019135993 -0.04373736 0.08523914 0.024647476 -0.066290915 -0.11032918 -0.013325528 0.020455722
0.10679624 0.066494994 0.1274067 0.07693605 0.09246817 -0.0787874 0.07810603 0.11446583
-0.012423276 0.017556854 0.010591291 0.014176585 -0.13541643 0.008422427 -0.056173787 -0.07352495
-0.04258572 -0.06680909 -0.114206016 -0.24229647 -0.05629821 -0.030798472 -0.18290204 -0.050733592
-0.038097546 -0.0051823235 0.064713664 -0.0042302227 0.1803507 -0.07769568 -0.14164186 0.11886402
-0.01496796 -0.01420658 0.1445244 -0.11893409 0.04949952 -0.07974226 0.1193844 -0.08745193
-0.01482422 -0.0858439 0.029894823 -0.016568776 0.053321946 -0.044246662 -0.019528616 0.028198583
0.042587385 0.10397382 -0.11076503 -0.024464648 0.039545722 -0.0014904513 -0.06654062 0.13750926
-0.0028056288 0.09509606 0.11896554 0.041936573 0.038196083 0.053593554 0.030090863 0.11234999
-0.047426704 -0.11598872 0.08237699 0.102917165 -0.007933382 0.21883075 -0.05229048 -0.02697791
-0.09017394 -0.06144241 0.06537117 -0.03970369 -0.1174011 -0.1031301 0.14852439 0.0837835
0.10513702 -0.09356319 -0.089812554 -0.027565315 0.18531618 0.08961092 0.07864843 0.13353486
0.06618199 -0.0616841 -0.2423795 0.15720315 -0.0904098 0.129956 0.03036922 0.051764067
00000000: 42fc e7bc a4f9 06bb 9eab 21bd 9b3a af3d
00000010: 6ba8 c6ba 2956 03bc b616 03bd cd5e 293e
00000020: f196 bcbc 9cea e23d 2b61 5fbb 2a0e 1dbd
00000030: 694b 22bb f866 ba3c 8a60 5a3c 0a38 0bbe
00000040: 96c4 bbbd 343f ac3d f269 81bd 5c06 863d
00000050: 8753 023e fc67 e93b dc45 17bd 7ba5 eabd
00000060: e3c7 813c b566 45bd 1b81 3f3d 000a 873d
00000070: a259 74bc c998 efba 78e3 023e dc45 8bbd
00000080: e33a 813c 7f3c 9abd 58a1 383c 9681 c83c
00000090: abc2 a5bd f4ce 563d 17ef 113d e531 8f3d
000000a0: d38d dc3c 17ed 04be 15cb 2d3d 1a7e 2cbd
000000b0: e8b5 98ba 882c 723c 0d49 d53d 5dbb 5abe
000000c0: f14f 09be 53a0 57bd b2b3 58be 8063 eb3b
000000d0: 4cd6 a3bc a302 253e 1704 f53c 573c 6f3e
000000e0: 8740 5ebd 7daf 62bd 1e7b 68bb 27ae 98bd
000000f0: fedd 1a3e 82e1 e6bd ef14 2bbd 9bb6 a5bd
00000100: 8eb7 29be 41ee 493d 08c4 8a3d 1aee 133d
00000110: e194 033e 8eb9 a73d 5457 0bbd a68f 9fbb
00000120: 42f5 95bd 33ec eb3d cfa5 a53d e0af 843c
00000130: fd42 0fbd 2dec d5bc 90a2 99bd 65f0 273e
00000140: 5db6 a23c a3c3 60bc 7755 833d a1c0 573d
00000150: b666 093e 6dc5 9c3d 5361 713d 1616 f93c
00000160: 2c99 17bc 09e1 23bd 25cf 27bd e33d d43c
00000170: b701 9bbd 64f6 4f3c da51 5bbd 8138 e93d
00000180: 083e 1b3e ba1a 8a3d d2b7 4b3c c15d e2bd
00000190: 70d8 6abd 6d9c 1e3d 528f 61bd 28df 9fbd
000001a0: e6d0 fe3c c259 9a3d 1e8e 3bbb 6e18 d4bd
000001b0: 57ab 93bd dc8b e63d 5403 da3c 3d7d 2c38
000001c0: a3a1 80bc 0ca7 06bd 5575 573d 55f1 f33c
000001d0: 1e7d 23be 013f 8a3d a8a9 9dbd 891f bebc
000001e0: b87d 0abd ee9e 373e fdce b9bd 0f9d 1c3d
000001f0: 226a 143d e1dd b8bd 4c52 fa3d e710 433d
00000200: 5042 943d c3e6 113e 8023 86bc a620 cb3d
00000210: c8e1 26be b463 2d3d 422d 27bd 8366 57bc
00000220: 210e 3f3d 885c fa3d fdea ab3d aeb6 b13c
00000230: 14b9 a13c a66a 813c c6c6 cdbd 83e8 83bd
00000240: 0f26 913c 4696 24be 998c 2f3d 415f 703d
00000250: f191 65bd 72c9 eabc a4d6 e2bd ebfa d13d
00000260: 16c3 9c3c f225 33bd dc91 ae3d 81e9 c93c
00000270: 88c3 87bd 44f4 e1bd 5153 5abc c292 a73c
00000280: fdb7 da3d 872e 883d e776 023e a690 9d3d
00000290: f45f bd3d 4a5b a1bd 0ef6 9f3d 106d ea3d
000002a0: ff8a 4bbc 64d3 8f3c 1887 2d3c e844 683c
000002b0: 9baa 0abe 38fe 093c 7c16 66bd 4094 96bd
000002c0: 5d6e 2ebd 34d3 88bd d8e4 e9bd 911c 78be
000002d0: f498 66bd 144d fcbc ac4a 3bbe 07ce 4fbd
000002e0: 2c0c 1cbd 7bd0 a9bb 9988 843d ae9d 8abb
000002f0: dbad 383e ea1e 9fbd 900a 11be fb6e f33d
00000300: 2d3c 75bc b7c2 68bc 34fe 133e b793 f3bd
00000310: 02c0 4a3d e94f a3bd cf7f f43d ff19 b3bd
00000320: 49e1 72bc edce afbd fde5 f43c 3ebb 87bc
00000330: 1d68 5a3d fd3b 35bd 7afa 9fbc b700 e73c
00000340: 1c70 2e3d 3af0 d43d c7d8 e2bd 166a c8bc
00000350: b2fa 213d 3f5b c3ba 7346 88bd 3acf 0c3e
00000360: a4de 37bb b9c1 c23d 34a4 f33d afc5 2b3d
00000370: 7f73 1c3d ea84 5b3d 1d81 f63c c017 e63d
00000380: 8142 42bd 7e8b edbd 44b5 a83d 3cc6 d23d
00000390: 04fb 01bc 2b15 603e 8b2e 56bd c700 ddbc
000003a0: 1dad b8bd 09ab 7bbd 52e1 853d 56a0 22bd
000003b0: fd6f f0bd e035 d3bd c716 183e af96 ab3d
000003c0: 1452 d73d 0f9e bfbd a5ef b7bd a8d0 e1bc
000003d0: 86c3 3d3e ee85 b73d 6e12 a13d 5dbd 083e
000003e0: 6c8a 873d 78a8 7cbd 5532 78be ddf9 203e
000003f0: c628 b9bd 3013 053e dfc8 f83c 8f06 543d
