results/Car/Car/Car-0.pt (torch, 194975 bytes, 13 tensors)

network_body._body_endoder.seq_layers.0.weight f4 [128, 49]
0.053384867 0.07493882 -0.14789423 0.22953746 0.21663296 -0.1261472 0.064818166 -0.032834835
-0.072482556 0.0059454488 -0.14414036 0.07654842 -0.06234587 0.040012736 -0.14771545 -0.09904384
0.110018976 0.041739292 0.006736022 0.002193271 0.0764145 0.078080766 0.039941236 0.09722861
-0.09804597 -0.030051064 -0.03176567 0.15160123 0.13435017 -0.20949747 0.30657148 -0.083688766
-0.09137187 0.345183 0.1486958 0.020345766 -0.24470682 0.040472325 -0.1885954 -0.15362954
-0.058220774 -0.2998204 -0.036127843 0.34950548 -0.16277835 0.13152874 -0.11548696 0.28177938
0.2838322 0.0921758 -0.25764358 -0.11707538 -0.12669584 -0.036991145 -0.043884452 -0.03725572
0.018965628 0.023343718 0.3003914 0.094587296 -0.2698669 -0.063507736 -0.062237814 0.06317582
-0.059460472 0.15548992 0.052118685 -0.11528969 0.06322929 -0.09857621 -0.13469909 -0.0518963
0.043540433 0.16919868 0.3728936 0.16737536 0.0031451145 -0.08328477 -0.10279581 0.23653454
0.04984089 0.00074430206 -0.17095055 0.18278196 -0.0895047 0.34989315 0.24353059 -0.112476766
-0.30278337 -0.05238666 -0.059907306 0.13377604 -0.12061018 -0.13648003 0.35117635 -0.23755518
-0.18837555 -0.024064137 0.18238653 0.04942866 0.18240026 0.020498125 -0.12132563 0.06014675
0.050399575 0.01663285 0.22328502 0.124446526 0.042280838 0.22718073 0.07632385 0.26721036
-0.27327242 0.23145892 0.00041756517 -0.034290474 0.3063889 -0.06500665 -0.13823351 0.01077057
0.06126281 -0.029137775 0.15753013 -0.06790236 0.00826983 -0.18941244 0.2144058 0.024856262
-0.30317518 0.10278347 -0.15634568 0.3928881 -0.032994278 -0.032725114 -0.0037179869 -0.21993381
0.029950129 -0.04540395 0.104134314 -0.25660682 0.00076839695 0.019547863 0.17495988 -0.08597445
0.22614469 -0.051277313 -0.05844746 -0.14042845 -0.16780409 0.049606424 -0.044448327 -0.28772178
-0.050448097 0.07796698 0.21801217 -0.058962256 0.16796878 -0.05739348 -0.14026129 0.016946485
0.0301029 0.05748926 0.0031349852 0.14326917 -0.118362755 0.250717 0.17443952 -0.02668382
0.0618056 -0.10793635 -0.086950146 -0.04741959 -0.19032587 -0.008422754 -0.2648164 -0.03453154
-0.22027537 -0.093402006 0.068466775 -0.0058973436 0.017892648 -0.16784841 -0.103865534 0.13838798
-0.09337728 -0.1432139 -0.065714575 0.06683256 0.07378437 -0.08970652 0.17995077 -0.0052207573
0.07056309 -0.20641269 -0.13575828 0.26010033 0.03787653 0.14631338 0.027992895 0.14671426
0.36559346 -0.118556924 0.1617063 -0.1572934 0.091829225 -0.070738375 -0.087988205 0.06673539
0.074696645 -0.1407009 -0.31524515 -0.10116695 0.31843743 -0.13304858 0.18028088 -0.024509748
-0.051390376 -0.0022617579 -0.101897314 -0.10369393 0.026673619 -0.0065009613 0.22000302 -0.03382133
-0.02316535 0.3231057 -0.20856908 0.083354376 0.13132712 -0.035462655 -0.31945723 0.032604855
0.18267508 -0.13746141 0.018693648 -0.006963401 -0.22167456 -0.1772063 0.15417989 0.09452841
0.18071145 0.0012738891 -0.05959394 0.10142307 -0.29687512 -0.009799008 0.0076319408 0.090812944
-0.024820182 0.06519626 -0.04155608 -0.08131018 -0.071790576 -0.10439209 0.05913408 -0.38470107
00000000: 17aa 5a3d 8679 993d 9671 17be de0b 6b3e
00000010: 08d5 5d3e bb2c 01be 63bf 843d d27d 06bd
00000020: bc71 94bd 0ad2 c23b 8899 13be 6bc5 9c3d
00000030: 625e 7fbd 65e4 233d b842 17be 7fd7 cabd
00000040: a151 e13d d2f6 2a3d d9b9 dc3b fbbc 0f3b
00000050: 357f 9c3d cfe8 9f3d 6c99 233d cb1f c73d
00000060: 53cc c8bd a62d f6bc b81c 02bd 5a3d 1b3e
00000070: 1793 093e 8186 56be f0f6 9c3e 0465 abbd
00000080: 2d21 bbbd d4bb b03e b643 183e 2aac a63c
00000090: 6d94 7abe 4fc6 253d 271f 41be 1051 1dbe
000000a0: e878 6ebd 0f82 99be cafa 13bd 62f2 b23e
000000b0: 5eaf 26be 78af 063e 6d84 ecbd 6345 903e
000000c0: 7452 913e aac6 bc3d dce9 83be 38c5 efbd
000000d0: 8ebc 01be 0784 17bd 2fc0 33bd 7499 18bd
000000e0: ce5d 9b3c 533b bf3c e7cc 993e fcb6 c13d
000000f0: ff2b 8abe 5810 82bd 14ed 7ebd 5362 813d
00000100: d38c 73bd c038 1f3e 677a 553d 001d ecbd
00000110: 5c7e 813d 53e2 c9bd 8fee 09be 3791 54bd
00000120: 7457 323d 6b42 2d3e e9eb be3e 7264 2b3e
00000130: 441e 4e3b 3591 aabd 9c86 d2bd 1c36 723e
00000140: f625 4c3d 441d 433a a90d 2fbe 322b 3b3e
00000150: 3d4e b7bd 3225 b33e 1560 793e 385a e6bd
00000160: 6c06 9bbe 6593 56bd 5d61 75bd 96fc 083e
00000170: 7802 f7bd 6cc1 0bbe 63cd b33e aa41 73be
00000180: 85e5 40be 2722 c5bc 89c3 3a3e b575 4a3d
00000190: 22c7 3a3e afeb a73c 9279 f8bd 705c 763d
000001a0: c96f 4e3d 9d41 883c d4a4 643e d2dd fe3d
000001b0: ac2e 2d3d 11a2 683e ae4f 9c3d cccf 883e
000001c0: 5dea 8bbe 9103 6d3e a6ec da39 2b74 0cbd
000001d0: 02df 9c3e 3522 85bd 168d 0dbe 0b77 303c
000001e0: b6ee 7a3d 58b2 eebc 944f 213e 6410 8bbd
000001f0: 2e7e 073c 56f5 41be 328d 5b3e 5c9f cb3c
00000200: c739 9bbe 2480 d23d 1519 20be a128 c93e
00000210: 0225 07bd c50a 06bd 78a9 73bb 5436 61be
00000220: f959 f53c 7ef9 39bd 5f44 d53d f861 83be
00000230: 3f6e 493a d722 a03c af28 333e 5f13 b0bd
00000240: 7992 673e 2908 52bd 9b66 6fbd 7acc 0fbe
00000250: d6d4 2bbe 1b30 4b3d 730f 36bd 4550 93be
00000260: aaa2 4ebd 27ad 9f3d 953e 5f3e 6882 71bd
00000270: 0200 2c3e 6d15 6bbd a8a0 0fbe 5bd3 8a3c
00000280: 5b9a f63c dc79 6b3d 5374 4d3b 27b5 123e
00000290: 2c68 f2bd fb5d 803e 46a0 323e 0798 dabc
000002a0: de27 7d3d bc0d ddbd eb12 b2bd 0b3b 42bd
000002b0: c9e4 42be 97ff 09bc 0496 87be f270 0dbd
000002c0: de8f 61be 8d49 bfbd 4f38 8c3d 813e c1bb
000002d0: 9a93 923c 74e0 2bbe 74b7 d4bd 94b5 0d3e
000002e0: 963c bfbd aaa6 12be 5d95 86bd 82df 883d
000002f0: 431c 973d 0db8 b7bd 0445 383e e312 abbb
00000300: 6283 903d d95d 53be 3804 0bbe df2b 853e
00000310: 6c24 1b3d 2dd3 153e 5b51 e53c 433c 163e
00000320: 112f bb3e f9cd f2bd 5696 253e 8511 21be
00000330: f610 bc3d 48df 90bd 2933 b4bd 90ac 883d
00000340: 8efa 983d e613 10be d067 a1be 9e30 cfbd
00000350: 3b0a a33e e33d 08be 8d9b 383e abc8 c8bc
00000360: b77e 52bd 003a 14bb 8aaf d0bd 7c5d d4bd
00000370: a282 da3c 0406 d5bb 7948 613e 3c88 0abd
00000380: 43c5 bdbc 1c6e a53e 2293 55be b3b5 aa3d
00000390: 9e7a 063e 4a41 11bd e68f a3be ab8c 053d
000003a0: 2d0f 3b3e afc2 0cbe 6c23 993c 3e2d e4bb
000003b0: a8fe 62be 9175 35be 55e1 1d3e 1c98 c13d
000003c0: 6c0c 393e a0f8 a63a c618 74bd e6b6 cf3d
000003d0: 0400 98be 058c 20bc 5c15 fa3b 23fc b93d
000003e0: b253 cbbc 9e85 853d b536 2abd f485 a6bd
000003f0: f006 93bd 85cb d5bd 9436 723d 8af7 c4be

network_body._body_endoder.seq_layers.0.bias f4 [128]
0.0 0.0 0.0 0.0 0.0 0.0 0.0 0.0
0.0 0.0 0.0 0.0 0.0 0.0 0.0 0.0
0.0 0.0 0.0 0.0 0.0 0.0 0.0 0.0
0.0 0.0 0.0 0.0 0.0 0.0 0.0 0.0
0.0 0.0 0.0 0.0 0.0 0.0 0.0 0.0
0.0 0.0 0.0 0.0 0.0 0.0 0.0 0.0
0.0 0.0 0.0 0.0 0.0 0.0 0.0 0.0
0.0 0.0 0.0 0.0 0.0 0.0 0.0 0.0
0.0 0.0 0.0 0.0 0.0 0.0 0.0 0.0
0.0 0.0 0.0 0.0 0.0 0.0 0.0 0.0
0.0 0.0 0.0 0.0 0.0 0.0 0.0 0.0
0.0 0.0 0.0 0.0 0.0 0.0 0.0 0.0
0.0 0.0 0.0 0.0 0.0 0.0 0.0 0.0
0.0 0.0 0.0 0.0 0.0 0.0 0.0 0.0
0.0 0.0 0.0 0.0 0.0 0.0 0.0 0.0
0.0 0.0 0.0 0.0 0.0 0.0 0.0 0.0
00000000: 0000 0000 0000 0000 0000 0000 0000 0000
00000010: 0000 0000 0000 0000 0000 0000 0000 0000
00000020: 0000 0000 0000 0000 0000 0000 0000 0000
00000030: 0000 0000 0000 0000 0000 0000 0000 0000
00000040: 0000 0000 0000 0000 0000 0000 0000 0000
00000050: 0000 0000 0000 0000 0000 0000 0000 0000
00000060: 0000 0000 0000 0000 0000 0000 0000 0000
00000070: 0000 0000 0000 0000 0000 0000 0000 0000
00000080: 0000 0000 0000 0000 0000 0000 0000 0000
00000090: 0000 0000 0000 0000 0000 0000 0000 0000
000000a0: 0000 0000 0000 0000 0000 0000 0000 0000
000000b0: 0000 0000 0000 0000 0000 0000 0000 0000
000000c0: 0000 0000 0000 0000 0000 0000 0000 0000
000000d0: 0000 0000 0000 0000 0000 0000 0000 0000
000000e0: 0000 0000 0000 0000 0000 0000 0000 0000
000000f0: 0000 0000 0000 0000 0000 0000 0000 0000
00000100: 0000 0000 0000 0000 0000 0000 0000 0000
00000110: 0000 0000 0000 0000 0000 0000 0000 0000
00000120: 0000 0000 0000 0000 0000 0000 0000 0000
00000130: 0000 0000 0000 0000 0000 0000 0000 0000
00000140: 0000 0000 0000 0000 0000 0000 0000 0000
00000150: 0000 0000 0000 0000 0000 0000 0000 0000
00000160: 0000 0000 0000 0000 0000 0000 0000 0000
00000170: 0000 0000 0000 0000 0000 0000 0000 0000
00000180: 0000 0000 0000 0000 0000 0000 0000 0000
00000190: 0000 0000 0000 0000 0000 0000 0000 0000
000001a0: 0000 0000 0000 0000 0000 0000 0000 0000
000001b0: 0000 0000 0000 0000 0000 0000 0000 0000
000001c0: 0000 0000 0000 0000 0000 0000 0000 0000
000001d0: 0000 0000 0000 0000 0000 0000 0000 0000
000001e0: 0000 0000 0000 0000 0000 0000 0000 0000
000001f0: 0000 0000 0000 0000 0000 0000 0000 0000

network_body._body_endoder.seq_layers.2.weight f4 [128, 128]
0.081044644 0.17395793 0.020006876 0.10337937 -0.11488339 -0.0819865 0.0017244227 0.121082954
0.010435444 0.035795335 -0.082351714 0.023456227 0.072088204 -0.09758841 0.07050479 -0.01527573
-0.021164257 0.007632278 -0.19465254 -0.09334166 -0.072111264 0.12025198 0.15646859 -0.07251984
-0.035493482 -0.008520054 0.039485894 0.014027213 0.036469806 -0.10093578 -0.104070164 0.00836943
-0.03278973 -0.16409913 0.080720484 -0.010932495 0.05739278 0.020411802 -0.1054435 -0.064837016
0.026443588 0.05722503 0.12496509 0.17874105 0.19828013 0.041872397 0.08847692 0.035914823
-0.009514951 -0.06456464 0.015616238 -0.07764649 -0.09617038 -0.017745921 0.00966598 -0.1246447
-0.09092544 0.049279865 0.014648279 -0.13929449 0.04686309 -0.023958921 0.050019544 0.12135084
-0.02761446 -0.02014961 -0.12592319 -0.049341146 -0.06974325 -0.040313024 -0.016853442 -0.0069886157
-0.01209342 0.010401638 -0.042723954 -0.0668637 0.078639776 -0.14589919 -0.07683855 0.0023771494
0.10534801 0.060564306 0.102406316 -0.08563709 -0.1481191 0.031982884 0.13352847 -0.100920334
-0.13684969 -0.01816927 0.028449172 -0.08286612 0.013941621 0.07747304 0.019075688 -0.14327735
-0.023965899 -0.105428815 0.23248947 0.13624252 0.13371716 -0.1869981 -0.08735786 0.013394155
0.1854958 -0.07039065 -0.11037409 0.13963652 0.006738083 -0.046893105 0.028616535 0.092400305
-0.076661564 -0.01571508 -0.056042586 -0.024520876 0.045875352 -0.10054351 -0.030645266 -0.010524079
0.035205092 0.13990888 0.12173976 -0.03714987 -0.11282422 -0.004295016 0.057325613 -0.009667334
-0.11117549 0.059752304 0.10315644 -0.06441313 0.016887182 0.0101540135 0.03346322 0.13892129
-0.22269613 -0.02114685 0.083987944 0.042432994 0.020541443 -0.11309692 0.08367964 -0.018381203
0.0022305197 -0.009703159 -0.06403646 0.06033671 0.026118489 -0.07152178 -0.057618532 0.017231915
-0.06961231 0.04820265 -0.079022884 0.058129966 0.029375093 0.13392314 0.055541083 -0.0094093215
0.006763441 0.034843825 -0.06594796 -0.19736661 0.13560362 -0.0778217 -0.11231379 0.07322455
0.011742877 0.13432963 -0.044939313 -0.06913905 -0.04364267 -0.0049137203 -0.104528904 -0.001452761
-0.031953823 0.01816021 -0.01885684 -0.074687734 0.040998377 0.010479235 0.0982341 -0.039848056
0.037613727 0.1254238 0.012498462 -0.15206231 -0.07913586 0.030747307 0.0355957 0.01554603
-0.03543632 -0.049026076 -0.055741277 -0.011245074 -0.11590699 -0.052729532 -0.11492648 0.017779212
0.047621924 -0.013026591 -0.20104428 0.09058195 -0.013545902 0.0755357 -0.11353112 0.15441403
-0.16595198 -0.014846007 0.004808865 -0.029821604 -0.08179597 -0.077180356 -0.028378028 0.005616654
0.05925589 0.07686055 -0.10995161 0.03967827 -0.036709677 -0.13360792 -0.06886669 0.006918558
-0.10888384 -0.2633187 -0.05087422 -0.07613045 0.03269135 0.14456792 0.0528705 -0.26966542
0.073129155 0.09844875 -0.02077786 0.029500078 0.039542913 -0.037213307 0.075063296 -0.16290337
0.2124054 -0.04439104 -0.1763498 -0.038274746 -0.08022599 0.031517025 0.12210945 0.031476192
0.0865173 -0.057339244 0.04163614 0.057067186 0.07418242 0.084193 0.048010066 0.013954989
00000000: bcfa a53d 0722 323e 76e5 a33c 90b8 d33d
00000010: fc47 ebbd 8ae8 a7bd 0606 e23a 57fa f73d
00000020: 6df9 2a3c 219e 123d 04a8 a8bd 4627 c03c
00000030: fba2 933d 6fdc c7bd d164 903d 0e47 7abc
00000040: aa60 adbc 3018 fa3b ff52 47be ea29 bfbd
00000050: 12af 93bd ac46 f63d 4d39 203e 4885 94bd
00000060: 9d61 11bd b297 0bbc f6bb 213d 65d2 653c
00000070: 5d61 153d 6bb7 cebd bd22 d5bd ef1f 093c
00000080: 864e 06bd 9a09 28be c850 a53d 351e 33bc
00000090: b114 6b3d a736 a73c c3f2 d7bd 45c9 84bd
000000a0: 39a0 d83c cb64 6a3d b2ed ff3d e507 373e
000000b0: f209 4b3e 6482 2b3d 6333 b53d 6c1b 133d
000000c0: 99e4 1bbc 773a 84bd 40db 7f3c 1f05 9fbd
000000d0: faf4 c4bd e55f 91bc 0f5e 1e3c b845 ffbd
000000e0: 1e37 babd afd9 493d 56ff 6f3c 37a3 0ebe
000000f0: 83f3 3f3d 8045 c4bc 4be1 4c3d ca86 f83d
00000100: b837 e2bc cb10 a5bc 02f2 00be f119 4abd
00000110: 8dd5 8ebd 451f 25bd 3b10 8abc c200 e5bb
00000120: 7b23 46bc a26b 2a3c 50ff 2ebd d6ef 88bd
00000130: e40d a13d 9966 15be 885d 9dbd f3c9 1b3b
00000140: b3c0 d73d 4712 783d 67ba d13d 8062 afbd
00000150: 89ac 17be 7c00 033d b0bb 083e 52af cebd
00000160: 5322 0cbe b9d7 94bc 3d0e e93c b6b5 a9bd
00000170: 666b 643c 2faa 9e3d 9e44 9c3c 4cb7 12be
00000180: 2254 c4bc 10eb d7bd b811 6e3e 2983 0b3e
00000190: 27ed 083e 6e7c 3fbe ade8 b2bd 2873 5b3c
000001a0: 9cf2 3d3e f928 90bd d00b e2bd e0fc 0e3e
000001b0: 23cb dc3b fc12 40bd 396d ea3c 5f3c bd3d
000001c0: bd00 9dbd e9bc 80bc e98c 65bd 01e0 c8bc
000001d0: cbe7 3b3d c1e9 cdbd c80b fbbc 306d 2cbc
000001e0: 3733 103d 4644 0f3e b252 f93d 762a 18bd
000001f0: 6210 e7bd 35bd 8cbb 43ce 6a3d bd63 1ebc
00000200: faaf e3bd d5be 743d af43 d33d 08eb 83bd
00000210: fd56 8a3c 055d 263c bb10 093d 6241 0e3e
00000220: 740a 64be 293c adbc df01 ac3d 38ce 2d3d
00000230: 8746 a83c 5c9f e7bd 3b60 ab3d 2d94 96bc
00000240: e92d 123b 00fa 1ebc 8c25 83bd a023 773d
00000250: 71f6 d53c 037a 92bd 6901 6cbd f229 8d3c
00000260: e690 8ebd 2470 453d c0d6 a1bd b019 6e3d
00000270: 09a4 f03c 2623 093e 0c7f 633d 8e29 1abc
00000280: db9f dd3b 66b8 0e3d b90f 87bd 791a 4abe
00000290: addb 0a3e fc60 9fbd c604 e6bd c1f6 953d
000002a0: 3265 403c b58d 093e 4912 38bd c698 8dbd
000002b0: a8c2 32bd 4603 a1bb 4013 d6bd 926a beba
000002c0: 03e2 02bd b9c4 943c a979 9abc e2f5 98bd
000002d0: eaed 273d 19b1 2b3c f62e c93d b737 23bd
000002e0: da10 1a3d 196f 003e 59c6 4c3c 39b6 1bbe
000002f0: fb11 a2bd c7e1 fb3c cccc 113d c7b4 7e3c
00000300: ad25 11bd 91cf 48bd f750 64bd 423d 38bc
00000310: a560 edbd ecfa 57bd 935e ebbd b6a5 913c
00000320: 350f 433d 7c6d 55bc 8dde 4dbe 0883 b93d
00000330: a2ef 5dbc 76b2 9a3d 0183 e8bd b61e 1e3e
00000340: 51ef 29be ab3c 73bc af93 9d3b 704c f4bc
00000350: a584 a7bd bc10 9ebd 0a79 e8bc e90b b83b
00000360: 4eb6 723d 1069 9d3d 4f2e e1bd af85 223d
00000370: e35c 16bd 84d0 08be fb09 8dbd 12b5 e23b
00000380: 7efe debd b5d1 86be 7c61 50bd 48ea 9bbd
00000390: 5de7 053d 9d09 143e bd8e 583d 9611 8abe
000003a0: bdc4 953d 809f c93d 5536 aabc 26aa f13c
000003b0: c0f7 213d fb6c 18bd c9ba 993d 24d0 26be
000003c0: cd80 593e 61d3 35bd 0b95 34be fbc5 1cbd
000003d0: 864d a4bd ff17 013d 8514 fa3d 2eed 003d
000003e0: fb2f b13d 8edc 6abd a88a 2a3d 48bf 693d
000003f0: f4ec 973d 616d ac3d 34a6 443d 77a3 643c

network_body._body_endoder.seq_layers.2.bias f4 [128]
0.0 0.0 0.0 0.0 0.0 0.0 0.0 0.0
0.0 0.0 0.0 0.0 0.0 0.0 0.0 0.0
0.0 0.0 0.0 0.0 0.0 0.0 0.0 0.0
0.0 0.0 0.0 0.0 0.0 0.0 0.0 0.0
0.0 0.0 0.0 0.0 0.0 0.0 0.0 0.0
0.0 0.0 0.0 0.0 0.0 0.0 0.0 0.0
0.0 0.0 0.0 0.0 0.0 0.0 0.0 0.0
0.0 0.0 0.0 0.0 0.0 0.0 0.0 0.0
0.0 0.0 0.0 0.0 0.0 0.0 0.0 0.0
0.0 0.0 0.0 0.0 0.0 0.0 0.0 0.0
0.0 0.0 0.0 0.0 0.0 0.0 0.0 0.0
0.0 0.0 0.0 0.0 0.0 0.0 0.0 0.0
0.0 0.0 0.0 0.0 0.0 0.0 0.0 0.0
0.0 0.0 0.0 0.0 0.0 0.0 0.0 0.0
0.0 0.0 0.0 0.0 0.0 0.0 0.0 0.0
0.0 0.0 0.0 0.0 0.0 0.0 0.0 0.0
00000000: 0000 0000 0000 0000 0000 0000 0000 0000
00000010: 0000 0000 0000 0000 0000 0000 0000 0000
00000020: 0000 0000 0000 0000 0000 0000 0000 0000
00000030: 0000 0000 0000 0000 0000 0000 0000 0000
00000040: 0000 0000 0000 0000 0000 0000 0000 0000
00000050: 0000 0000 0000 0000 0000 0000 0000 0000
00000060: 0000 0000 0000 0000 0000 0000 0000 0000
00000070: 0000 0000 0000 0000 0000 0000 0000 0000
00000080: 0000 0000 0000 0000 0000 0000 0000 0000
00000090: 0000 0000 0000 0000 0000 0000 0000 0000
000000a0: 0000 0000 0000 0000 0000 0000 0000 0000
000000b0: 0000 0000 0000 0000 0000 0000 0000 0000
000000c0: 0000 0000 0000 0000 0000 0000 0000 0000
000000d0: 0000 0000 0000 0000 0000 0000 0000 0000
000000e0: 0000 0000 0000 0000 0000 0000 0000 0000
000000f0: 0000 0000 0000 0000 0000 0000 0000 0000
00000100: 0000 0000 0000 0000 0000 0000 0000 0000
00000110: 0000 0000 0000 0000 0000 0000 0000 0000
00000120: 0000 0000 0000 0000 0000 0000 0000 0000
00000130: 0000 0000 0000 0000 0000 0000 0000 0000
00000140: 0000 0000 0000 0000 0000 0000 0000 0000
00000150: 0000 0000 0000 0000 0000 0000 0000 0000
00000160: 0000 0000 0000 0000 0000 0000 0000 0000
00000170: 0000 0000 0000 0000 0000 0000 0000 0000
00000180: 0000 0000 0000 0000 0000 0000 0000 0000
00000190: 0000 0000 0000 0000 0000 0000 0000 0000
000001a0: 0000 0000 0000 0000 0000 0000 0000 0000
000001b0: 0000 0000 0000 0000 0000 0000 0000 0000
000001c0: 0000 0000 0000 0000 0000 0000 0000 0000
000001d0: 0000 0000 0000 0000 0000 0000 0000 0000
000001e0: 0000 0000 0000 0000 0000 0000 0000 0000
000001f0: 0000 0000 0000 0000 0000 0000 0000 0000

action_model._continuous_distribution.log_sigma f4 [1, 2]
0.0 0.0
00000000: 0000 0000 0000 0000

action_model._continuous_distribution.mu.weight f4 [2, 128]
-0.0013449207 -0.001360583 0.008823955 0.009448947 -0.028323147 -0.037737355 -0.016768372 -0.0009956665
-0.019731147 0.0067238556 -0.029258067 0.0002840518 0.010569508 -0.034243044 0.0060149976 -0.039052915
0.0020525972 -0.010298937 0.015288459 0.0020285582 -0.012090247 0.008864486 -0.033582315 -0.019015117
-0.005937812 0.0018844139 0.03858827 0.03057657 0.002221627 0.023011256 0.011495213 0.011588118
-0.011714413 0.00031410425 0.0056691593 0.014453128 0.0068097077 -0.011030699 0.0023661281 -0.0025609785
0.009942566 0.022709535 0.03114523 0.015810054 -0.000573083 -0.033479463 0.011164584 -0.0108388355
0.010345179 -0.01812855 -0.00046047496 0.0029812315 -0.0053929556 -0.015249613 0.018444343 0.02055576
0.053340256 0.01822566 0.0036754196 0.0066664303 -0.027900964 -0.0009375452 -0.0030860605 -0.01827858
0.032809198 0.019677388 -0.02258001 0.016461717 -0.028187145 -0.019184772 0.016838623 0.009549925
-0.015006472 0.012534142 0.020840265 0.036917314 0.007709642 0.029553756 0.005705153 -0.007700006
0.000518859 0.012098962 0.009827289 0.010587014 -0.0034848906 -0.030491961 -0.044609353 0.02110674
0.046371546 0.012356229 -0.011765523 -0.018731259 -0.003668728 0.0058297026 0.0017543009 0.015308372
-0.0049103 -0.0082731685 -0.031102344 -0.020296622 0.016591677 0.009335784 0.027712032 0.0011221562
0.024744539 0.003996862 -0.0077940286 -0.00892779 -0.006433712 0.003517786 -0.017689418 -0.010587587
0.010491989 -0.017876482 -0.008289697 0.0051045213 -0.015233584 0.007519321 0.018503947 0.007770914
-0.025102315 0.03326675 0.02407655 0.010030266 0.042768363 -0.0048576393 0.0041047763 0.009515055
0.014347347 0.017288895 0.006250751 -7.4687e-05 0.054461043 -0.006525161 -0.027270356 0.017902415
0.02255179 -0.015554232 -0.0055214525 -0.006702773 -0.020769207 -0.008207227 0.006506263 -0.022154607
0.01992421 0.0039470373 0.010253261 0.011639267 0.0035462517 0.017691346 0.011256135 -0.0051534325
0.02118739 0.0052848584 0.018328395 -0.0077502863 0.047962256 0.008837831 0.013271905 -0.031208022
-0.014011042 0.015590561 0.00076874736 0.0016892496 0.018763194 -0.008331559 0.0085789105 0.00332064
-0.032546498 -0.0034039374 -0.04347387 -0.011683038 0.0070145885 0.015725454 -0.025000168 0.043352317
-0.011796433 0.001371132 -0.00044645864 -0.023183614 -0.0063072043 -0.03440237 0.016378982 -0.030348618
-0.017876977 0.017173475 0.011574778 -0.01827847 -0.028482972 -0.020755365 -0.012677646 -0.017479915
-0.0129881725 -0.024600549 -0.019999323 0.0059104445 0.0046787425 0.03164884 0.0021592646 0.03130999
-0.046377193 0.031895608 -0.02151256 -0.011956608 -0.017905017 0.022789272 0.033074174 0.030451143
0.019728864 -0.027016094 -0.012544348 -0.010097391 -0.01777139 -0.003077724 0.010441045 -0.012379256
0.022128386 -0.009451229 0.0018572857 0.005334764 -0.009151372 0.0052095354 0.026936714 -0.000610204
-0.008753968 -0.001279727 -0.020262446 0.023611195 0.036688723 0.010461847 -0.002262568 -0.013655352
-0.015818877 -0.02614553 0.03230193 -0.027514625 -0.021779364 0.0033911762 0.0023684385 0.013273138
0.02126851 0.031341266 -0.008309486 -0.010394118 0.021886662 0.0026013057 0.017183296 -0.01151918
-0.0032897268 0.009865089 0.0049154083 -0.003282774 0.0035133031 0.01911645 -0.008780762 -0.002587552
00000000: 0d48 b0ba 9755 b2ba 5a92 103c c2cf 1a3c
00000010: f205 e8bc 7c92 1abd d35d 89bc 0681 82ba
00000020: 37a3 a1bc ca53 dc3b 9dae efbc caec 9439
00000030: bb2b 2d3c 6f42 0cbd 7519 c53b f3f5 1fbd
00000040: de84 063b dfbc 28bc 727c 7a3c 8ff1 043b
00000050: 2c16 46bc 593c 113c 9c8d 09bd 97c5 9bbc
00000060: fa91 c2bb 70fe f63a bc0e 1e3d b77b fa3c
00000070: b798 113b 1a82 bc3c 6b56 3c3c 17dc 3d3c
00000080: cfed 3fbc 5cae a439 5bc4 b93b d0cc 6c3c
00000090: f823 df3b 1bba 34bc 0b11 1b3b 17d6 27bb
000000a0: 25e6 223c 5909 ba3c 4824 ff3c 1684 813c
000000b0: f33a 16ba c321 09bd a9eb 363c 5f95 31bc
000000c0: d37e 293c 5382 94bc e76b f1b9 c460 433b
000000d0: 64b7 b0bb 83d9 79bc 9718 973c 8e64 a83c
000000e0: 507b 5a3d fb4d 953c 4fdf 703b 1272 da3b
000000f0: 9090 e4bc 98c5 75ba 813f 4abb f6bc 95bc
00000100: f062 063d 7932 a13c b7f9 b8bc b9da 863c
00000110: bae8 e6bc 6229 9dbc 27f1 893c 4a77 1c3c
00000120: b5dd 75bc 005c 4d3c 34b9 aa3c 9c36 173d
00000130: 2aa1 fc3b b81a f23c 4bf2 ba3b 5550 fcbb
00000140: 0a04 083a ba3a 463c a302 213c 2875 2d3c
00000150: c362 64bb 47ca f9bc 4cb8 36bd 0be8 ac3c
00000160: 17f0 3d3d c871 4a3c 2ec4 40bc 4c72 99bc
00000170: 0b6f 70bb 1707 bf3b 92f0 e53a f7cf 7a3c
00000180: 95e6 a0bb 2f8c 07bc 58ca febc 1a45 a6bc
00000190: 45eb 873c 1ef5 183c 5804 e33c 5015 933a
000001a0: 0fb5 ca3c 1cf8 823b 0d65 ffbb de45 12bc
000001b0: e3d1 d2bb a88a 663b 66e9 90bc 8f77 2dbc
000001c0: 97e6 2b3c b371 92bc 82d1 07bc d443 a73b
000001d0: 4896 79bc a364 f63b 9795 973c 27a3 fe3b
000001e0: 5fa3 cdbc b742 083d 2f3c c53c fc55 243c
000001f0: e12d 2f3d d52c 9fbb 5c81 863b 09e5 1b3c
00000200: 2311 6b3c 71a1 8d3c 1ad3 cc3b 47a1 9cb8
00000210: 8b12 5f3d 05d1 d5bb 1566 dfbc 16a8 923c
00000220: 88be b83c 2dd7 7ebc 4ded b4bb efa2 dbbb
00000230: 2f24 aabc 9b77 06bc 7d32 d53b 947d b5bc
00000240: 1938 a33c 2656 813b 4bfd 273c a0b2 3e3c
00000250: 3b68 683b 71ed 903c a76b 383c 20de a8bb
00000260: 2d91 ad3c 9b2c ad3b 6e25 963c 1df6 fdbb
00000270: 1274 443d 8dcc 103c 6772 593c f7a7 ffbc
00000280: 928e 65bc 8d6f 7f3c c385 493a d069 dd3a
00000290: 45b5 993c 1781 08bc 8f8e 0c3c 189f 593b
000002a0: 7a4f 05bd 9814 5fbb a811 32bd 376a 3fbc
000002b0: a2da e53b abd2 803c 27cd ccbc 3392 313d
000002c0: d345 41bc 8eb7 b33a aa12 eab9 90eb bdbc
000002d0: aaac cebb 80e9 0cbd 372d 863c aa9d f8bc
000002e0: bd72 92bc 63af 8c3c 23a4 3d3c bbbc 95bc
000002f0: 1f55 e9bc 2807 aabc e7b5 4fbc 0a32 8fbc
00000300: 58cc 54bc 1787 c9bc 9fd5 a3bc 67ac c13b
00000310: 2350 993b 37a2 013d 7382 0d3b e73e 003d
00000320: 03f6 3dbd f8a4 023d 1c3b b0bc a6e5 43bc
00000330: 8bad 92bc 91b0 ba3c c978 073d ad74 f93c
00000340: 6d9e a13c db50 ddbc cf86 4dbc 876f 25bc
00000350: 4e95 91bc a4b3 49bb eb10 2b3c 5dd2 4abc
00000360: 9746 b53c 54d9 1abc 2b70 f33a 3ecf ae3b
00000370: a3ef 15bc c0b4 aa3b 62aa dc3c 19f6 1fba
00000380: ce6c 0fbc 83bc a7ba 6efd a5bc 446c c13c
00000390: ea46 163d 2b68 2b3c 9847 14bb b3ba 5fbc
000003a0: 9796 81bc 272f d6bc 074f 043d 5a66 e1bc
000003b0: a36a b2bc 7f3e 5e3b ce37 1b3b 9377 593c
000003c0: 4c3b ae3c b35f 003d 8324 08bc 174c 2abc
000003d0: a84b b33c ab7a 2a3b fcc3 8c3c f1ba 3cbc
000003e0: 7598 57bb 2fa1 213c 6f11 a13b cf23 57bb
000003f0: 723f 663b 1a9a 9c3c 2fdd 0fbc eb93 29bb

action_model._continuous_distribution.mu.bias f4 [2]
0.0 0.0
00000000: 0000 0000 0000 0000

action_model._discrete_distribution.branches.0.weight f4 [1, 128]
-0.0025198262 0.010093029 0.0013001641 0.0030811466 0.012214373 0.010965884 0.0039525526 -0.008851866
0.004208596 -0.009748392 0.0017610658 -0.004820923 -0.0034534426 0.009849179 0.00478752 -0.004780629
-0.013248856 0.009260271 -0.006964374 -0.01634613 0.002895002 -0.008784655 -0.006430212 -0.0041619195
0.014853987 0.0017379062 -0.0030701442 0.009191424 -0.0015962918 -0.004781217 0.011136262 0.0029866677
0.0095700035 -0.0075193844 0.01399436 -0.0062201316 -0.0068731247 0.008096679 0.010680753 -0.0026266095
0.004832936 -0.010234009 -0.004505425 0.018464763 -0.0062924013 -0.0008606161 -0.008038834 0.0016683054
-0.0015683062 -0.00120701 0.0061303196 0.0033343022 0.0044791102 -0.0039091087 -0.011064822 0.0072046756
0.01757505 0.0002957408 0.0032380396 0.012232796 -0.020924274 -0.0076436857 -0.0033409984 -0.0033437384
-0.019632587 -0.011329054 0.00029166852 0.013504744 -0.009203991 0.0009207826 -0.014018836 -0.0038501516
-0.010115961 -0.006574613 0.009647581 0.006995694 -0.0024499807 -0.010837049 0.0070838924 0.010395369
-0.0023127105 0.008259981 0.00399732 0.009842203 -0.005845965 -0.012385417 0.00017314639 0.003827725
0.021347888 0.0046992605 0.01720081 -0.008669692 -0.012304956 0.0027835534 0.0018886222 0.0015187496
0.009886503 0.0003480522 0.0062171533 -0.01965961 0.0043429965 -8.328307e-05 0.014625847 0.004405761
1.6743013e-05 0.0007280998 -0.001376708 -0.0034993507 0.0012874702 -0.013641757 0.0012922921 -0.005021373
0.005646464 0.011994652 0.015096505 -0.007614121 0.0033682291 0.0071502416 -0.0014229572 -0.00082122715
-0.0070163533 0.0031924956 0.0032115884 -0.002469254 -0.013595276 -0.0115513895 0.0022445624 0.00014792918
00000000: ab23 25bb 3b5d 253c 456a aa3a 10ed 493b
00000010: cb1e 483c 40aa 333c 6a84 813b 6b07 11bc
00000020: 43e8 893b b8b7 1fbc 90d3 e63a d5f8 9dbb
00000030: 2753 62bb 735e 213c a1e0 9c3b d3a6 9cbb
00000040: bb11 59bc 64b8 173c 6735 e4bb 52e8 85bc
00000050: 13ba 3d3b 83ed 0fbc 87b4 d2bb b660 88bb
00000060: 235e 733c 75ca e33a 7934 49bb a097 163c
00000070: aa3a d1ba c1ab 9cbb de74 363c f8bb 433b
00000080: 81cb 1c3c 2b65 f6bb 9a48 653c 3fd2 cbbb
00000090: f337 e1bb efa7 043c 53fe 2e3c 3223 2cbb
000000a0: 9b5d 9e3b 8bac 27bc 3fa2 93bb 6a43 973c
000000b0: 7d30 cebb f89a 61ba 50b5 03bc 0aab da3a
000000c0: a08f cdba 8934 9eba d9e0 c83b 4f84 5a3b
000000d0: 80c5 923b fb17 80bb 3a49 35bc 3315 ec3b
000000e0: 8df9 8f3c a90d 9b39 4a35 543b 116c 483c
000000f0: 6269 abbc e277 fabb a7f4 5abb 9f22 5bbb
00000100: 85d4 a0bc 7f9d 39bc 16eb 9839 0043 5d3c
00000110: 56cc 16bc ad60 713a 43af 65bc d352 7cbb
00000120: 6abd 25bc da6f d7bb e310 1e3c 223c e53b
00000130: db8f 20bb e18d 31bc ff1f e83b 5651 2a3c
00000140: d890 17bb df54 073c f3fb 823b 3141 213c
00000150: 828f bfbb 34ec 4abc a18e 3539 92da 7a3b
00000160: c4e1 ae3c 41fc 993b b7e8 8c3c 530b 0ebc
00000170: ba9a 49bc 476c 363b a58b f73a c810 c73a
00000180: 00fb 213c c77a b639 43b9 cb3b 310d a1bc
00000190: b24f 8e3b 42a8 aeb8 40a1 6f3c 345e 903b
000001a0: 5973 8c37 f3dd 3e3a a872 b4ba 5d55 65bb
000001b0: 55c0 a83a ad81 5fbc 2162 a93a 548a a4bb
000001c0: f905 b93b 3885 443c 5557 773c e07f f9bb
000001d0: 82bd 5c3b 934c ea3b 8582 baba 9f47 57ba
000001e0: 70e9 e5bb 3039 513b 8379 523b 35d3 21bb
000001f0: b8be 5ebc 0a42 3dbc 8219 133b 701d 1b39

network_body._body_endoder.seq_layers.0.weight f4 [128, 49]
0.07287535 0.3732454 -0.0040577273 -0.07419705 0.06248852 0.014881447 -0.052618694 -0.08786277
0.29592323 0.3741291 -0.11092118 0.22359355 0.16496943 -0.06127724 0.17887552 0.08498002
-0.16821125 0.047806844 -0.021597648 0.25289208 -0.03222547 -0.2424463 -0.18391542 -0.32989416
0.19258097 0.08862109 -0.14051929 0.0034008573 0.113355316 0.25730166 -0.016031498 -0.06605273
0.23250838 0.04804381 0.012899095 0.014438861 0.0708363 -0.05883635 0.029214451 0.0554804
-0.02946813 0.13315043 -0.073362425 -0.104476206 -0.014190415 -0.21319535 0.031356797 0.13806055
-0.04346455 -0.03555292 0.14644548 0.086397484 -0.23019116 0.15052778 -0.019316344 0.003701051
0.16342942 0.090545274 0.011048493 -0.077859126 -0.05749615 -0.056696445 0.15032513 -0.035231605
-0.09081153 0.040175825 -0.049429074 0.0070516546 0.08273554 -0.050535545 0.19864626 0.08039625
-0.04218014 -0.23084815 -0.009127608 -0.17679876 0.22607054 0.053520266 0.09089364 0.13828538
0.3207757 -0.043845985 0.26996297 0.15760903 -0.02764284 0.23628332 -0.1875588 0.10611735
-0.32428014 -0.100259535 0.19150041 0.096067354 -0.027053673 0.076373294 -0.04639333 0.20106333
-0.27797225 0.28635627 -0.07172544 0.10294824 -0.069621965 0.06018892 0.047165044 0.18412416
0.10560168 0.31851003 -0.113388546 0.037897624 -0.07514021 0.18123232 0.04639144 -0.18625204
0.13147055 -0.20026892 -0.17229874 -0.058288667 0.08562649 0.20520523 -0.15059288 0.07389371
0.038972285 -0.048344042 -0.031020198 0.07195358 -0.07520484 0.107969224 -0.149078 -0.15038101
0.15128651 -0.0174418 0.0733902 0.2710958 0.013404389 0.06293282 0.075318515 0.105173565
-0.046438687 -0.27328652 0.034019765 0.17521778 0.078642644 -0.041026995 -0.16404207 -0.052619018
0.3849445 0.07402103 0.13305211 -0.23491302 -0.24647838 -0.009503553 0.12555847 0.08281521
0.06338568 -0.0028564953 0.07028255 -0.15214235 -0.32436955 0.035733797 -0.014458271 -0.055641077
-0.27989718 -0.04442626 -0.39995852 -0.0066790255 0.16251281 0.13651845 -0.05795069 -0.09480269
0.13461882 0.11022086 0.0875208 -0.097921 0.08785345 0.21853003 0.04820393 -0.19533662
-0.08976913 0.044278007 0.1973617 -0.08988961 -0.032107756 0.14444968 0.1566511 -0.40639356
0.17754549 -0.019456062 0.1471949 -0.14578255 -0.052847777 -0.06723288 -0.020009352 -0.17590418
0.06497897 -0.15541084 -0.028523874 -0.15981773 -0.025275862 0.074685454 0.040279437 -0.041029528
-0.0751504 0.08610857 0.0822757 0.09830274 -0.2547724 0.100473516 0.11538259 -0.0681131
0.1799073 0.10071244 0.24926357 0.016662955 -0.16153257 0.21206991 -0.21362723 -0.22421789
0.022372242 -0.09157355 -0.26388857 -0.08161402 -0.3408972 0.005093974 0.19313066 0.07857301
0.12830672 0.04290357 -0.16063555 0.1346551 -0.068254106 -0.043229524 -0.06964579 -0.08527548
-0.041251704 0.06272812 0.11452677 -0.19845666 0.25531575 0.13949445 -0.2357556 -0.11567124
-0.07149932 -0.14594887 -0.048216533 -0.23148003 -0.115257986 -0.38245884 0.0556996 -0.08321967
-0.118071206 0.095873125 0.02679091 -0.15639967 0.024093231 -0.21777608 0.14908843 0.12739195
00000000: ac3f 953d 051a bf3e aff6 84bb 9ff4 97bd
00000010: f6f3 7f3d 50d1 733c b386 57bd 65f1 b3bd
00000020: 4083 973e d98d bf3e a52a e3bd b5f5 643e
00000030: bfed 283e d8fd 7abd 252b 373e 010a ae3d
00000040: 923f 2cbe 1cd1 433d 8ded b0bc 127b 813e
00000050: dbfe 03bd d843 78be 5354 3cbe e3e7 a8be
00000060: f233 453e f97e b53d 4ae4 0fbe ebe0 5e3b
00000070: d526 e83d 0bbd 833e 7d54 83bc a746 87bd
00000080: ad16 6e3e 96c9 443d ba56 533c f990 6c3c
00000090: 9f12 913d 62fe 70bd 2553 ef3c 6a3f 633d
000000a0: 2667 f1bc 9658 083e 0a3f 96bd 9ff7 d5bd
000000b0: ea7e 68bc e24f 5abe fc6f 003d bf5f 0d3e
000000c0: e207 32bd f09f 11bd cef5 153e 2af1 b03d
000000d0: 3bb7 6bbe f423 1a3e 4f3d 9ebc 558d 723b
000000e0: 0b5a 273e cd6f b93d bd04 353c 9b74 9fbd
000000f0: 1581 6bbd 883a 68bd d5ee 193e 044f 10bd
00000100: 65fb b9bd 688f 243d 2476 4abd 9111 e73b
00000110: 4071 a93d 5cfe 4ebd ed69 4b3e caa6 a43d
00000120: 15c5 2cbd 7563 6cbe f68b 15bc bc0a 35be
00000130: 097f 673e 1138 5b3d 7226 ba3d af9a 0d3e
00000140: b63c a43e d997 33bd 9638 8a3e 4364 213e
00000150: 3d73 e2bc 41f4 713e 6a0f 40be 0e54 d93d
00000160: 0c08 a6be df54 cdbd af18 443e f6be c43d
00000170: aa9f ddbc 9a69 9c3d ef06 3ebd 8ce3 4d3e
00000180: 6152 8ebe 4a9d 923e cae4 92bd 87d6 d23d
00000190: f695 8ebd a888 763d 2230 413d 0b8b 3c3e
000001a0: b245 d83d bf13 a33e 4138 e8bd 8a3a 1b3d
000001b0: 1ce3 99bd f794 393e f304 3e3d dbb8 3ebe
000001c0: 37a0 063e 4c13 4dbe 156f 30be 19c0 6ebd
000001d0: f15c af3d 5221 523e 0535 1abe 9655 973d
000001e0: 67a1 1f3d 6704 46bd 121e febc 665c 933d
000001f0: ff04 9abd f81e dd3d e7a7 18be 7bfd 19be
00000200: daea 1a3e 1be2 8ebc 9a4d 963d 12cd 8a3e
00000210: 159e 5b3c ece2 803d 9840 9a3d 3d65 d73d
00000220: 7e36 3ebd 36ec 8bbe 4f58 0b3d 4a6c 333e
00000230: 650f a13d ec0b 28bd a5fa 27be 0a87 57bd
00000240: 7217 c53e 5698 973d d03e 083e 0a8d 70be
00000250: d464 7cbe cab4 1bbc 6692 003e 059b a93d
00000260: 5ad0 813d 0a34 3bbb 4cf0 8f3d 34cb 1bbe
00000270: c413 a6be 9a5d 123d 62e2 6cbc e6e7 63bd
00000280: af4e 8fbe 4ff8 35bd 5dc7 ccbe badb dabb
00000290: c269 263e 7ecb 0b3e b45d 6dbd ea27 c2bd
000002a0: 84d9 093e 79bb e13d 1b3e b33d ce8a c8bd
000002b0: 82ec b33d 56c6 5f3e 7c71 453d 5306 48be
000002c0: e1d8 b7bd db5c 353d 2f19 4a3e 0b18 b8bd
000002d0: 6c83 03bd 9eea 133e 2569 203e d112 d0be
000002e0: 7cce 353e 5262 9fbc 43ba 163e 0548 15be
000002f0: e976 58bd 64b1 89bd a7ea a3bc 3a20 34be
00000300: b213 853d 0524 1fbe e6aa e9bc 42a7 23be
00000310: 530f cfbc b0f4 983d 0dfc 243d 940e 28bd
00000320: 74e8 99bd b159 b03d 2a80 a83d f252 c93d
00000330: 8771 82be 0fc5 cd3d b54d ec3d e27e 8bbd
00000340: 9f39 383e 5342 ce3d f33e 7f3e c080 883c
00000350: cb68 25be db28 593e 19c1 5abe 6099 65be
00000360: fe45 b73c ea8a bbbd 671c 87be 4025 a7bd
00000370: 148a aebe 5aeb a63b 0bc4 453e e3ea a03d
00000380: d662 033e a7bb 2f3d a57d 24be 07e3 093e
00000390: cfc8 8bbd 7111 31bd 74a2 8ebd e9a4 aebd
000003a0: 8cf7 28bd 9a77 803d 038d ea3d 3938 4bbe
000003b0: bfb8 823e a2d7 0e3e ea69 71be 0be5 ecbd
000003c0: 3c6e 92bd 9f73 15be b37e 45bd 1a09 6dbe
000003d0: 610c ecbd a5d1 c3be 4425 643d 136f aabd
000003e0: 51cf f1bd 2159 c43d 9c78 db3c 3c27 20be
000003f0: 2b5f c53c b100 5fbe a3aa 183e 0973 023e

network_body._body_endoder.seq_layers.0.bias f4 [128]
0.0 0.0 0.0 0.0 0.0 0.0 0.0 0.0
0.0 0.0 0.0 0.0 0.0 0.0 0.0 0.0
0.0 0.0 0.0 0.0 0.0 0.0 0.0 0.0
0.0 0.0 0.0 0.0 0.0 0.0 0.0 0.0
0.0 0.0 0.0 0.0 0.0 0.0 0.0 0.0
0.0 0.0 0.0 0.0 0.0 0.0 0.0 0.0
0.0 0.0 0.0 0.0 0.0 0.0 0.0 0.0
0.0 0.0 0.0 0.0 0.0 0.0 0.0 0.0
0.0 0.0 0.0 0.0 0.0 0.0 0.0 0.0
0.0 0.0 0.0 0.0 0.0 0.0 0.0 0.0
0.0 0.0 0.0 0.0 0.0 0.0 0.0 0.0
0.0 0.0 0.0 0.0 0.0 0.0 0.0 0.0
0.0 0.0 0.0 0.0 0.0 0.0 0.0 0.0
0.0 0.0 0.0 0.0 0.0 0.0 0.0 0.0
0.0 0.0 0.0 0.0 0.0 0.0 0.0 0.0
0.0 0.0 0.0 0.0 0.0 0.0 0.0 0.0
00000000: 0000 0000 0000 0000 0000 0000 0000 0000
00000010: 0000 0000 0000 0000 0000 0000 0000 0000
00000020: 0000 0000 0000 0000 0000 0000 0000 0000
00000030: 0000 0000 0000 0000 0000 0000 0000 0000
00000040: 0000 0000 0000 0000 0000 0000 0000 0000
00000050: 0000 0000 0000 0000 0000 0000 0000 0000
00000060: 0000 0000 0000 0000 0000 0000 0000 0000
00000070: 0000 0000 0000 0000 0000 0000 0000 0000
00000080: 0000 0000 0000 0000 0000 0000 0000 0000
00000090: 0000 0000 0000 0000 0000 0000 0000 0000
000000a0: 0000 0000 0000 0000 0000 0000 0000 0000
000000b0: 0000 0000 0000 0000 0000 0000 0000 0000
000000c0: 0000 0000 0000 0000 0000 0000 0000 0000
000000d0: 0000 0000 0000 0000 0000 0000 0000 0000
000000e0: 0000 0000 0000 0000 0000 0000 0000 0000
000000f0: 0000 0000 0000 0000 0000 0000 0000 0000
00000100: 0000 0000 0000 0000 0000 0000 0000 0000
00000110: 0000 0000 0000 0000 0000 0000 0000 0000
00000120: 0000 0000 0000 0000 0000 0000 0000 0000
00000130: 0000 0000 0000 0000 0000 0000 0000 0000
00000140: 0000 0000 0000 0000 0000 0000 0000 0000
00000150: 0000 0000 0000 0000 0000 0000 0000 0000
00000160: 0000 0000 0000 0000 0000 0000 0000 0000
00000170: 0000 0000 0000 0000 0000 0000 0000 0000
00000180: 0000 0000 0000 0000 0000 0000 0000 0000
00000190: 0000 0000 0000 0000 0000 0000 0000 0000
000001a0: 0000 0000 0000 0000 0000 0000 0000 0000
000001b0: 0000 0000 0000 0000 0000 0000 0000 0000
000001c0: 0000 0000 0000 0000 0000 0000 0000 0000
000001d0: 0000 0000 0000 0000 0000 0000 0000 0000
000001e0: 0000 0000 0000 0000 0000 0000 0000 0000
000001f0: 0000 0000 0000 0000 0000 0000 0000 0000

network_body._body_endoder.seq_layers.2.weight f4 [128, 128]
0.04830921 -0.013751015 0.098687276 -0.1472139 0.12807314 -0.06853039 0.087957315 -0.0025613862
0.12872764 -0.07724327 0.061162893 -0.10588357 0.082209006 0.12657313 -0.20105007 0.032791186
-0.034721978 0.016470535 0.042227622 0.007711897 -0.027936298 -0.097130224 -0.09232422 -0.08938399
0.12376234 0.03149265 0.05441599 -0.10307272 -0.033444576 -0.03964093 0.020941388 -0.17508829
0.105314165 -0.14482448 0.07335717 0.11205618 -0.00090525806 -0.10340963 0.15541834 0.09690324
-0.026458614 -0.087882 0.052232835 0.0778162 -0.1414109 0.023324667 -0.057961553 0.020225894
-0.21213253 0.11311131 0.21431537 0.1148537 -0.16185327 0.033399437 0.04890284 -0.19370666
-0.03488535 -0.08165954 0.045640506 -0.08207692 0.045979913 -0.08017188 -0.11046214 -0.09472734
0.002270993 -0.09306457 -0.0034897935 0.081513 -0.1314907 0.1327903 -0.06659467 -0.1425623
-0.097701125 -0.07237267 -0.0914179 0.11041933 0.1480578 -0.051986076 -0.012795187 0.03634756
0.11612115 0.10624283 0.038395166 -0.055083245 -0.06161413 -0.10473253 -0.0051451535 -0.03019084
0.010630623 0.04532398 0.0038439909 0.08169588 -0.052897543 -0.025969645 0.14571789 -0.11969874
-0.056866765 -0.05620679 0.073045805 -0.22363082 -0.07414549 0.081304185 0.0874078 -0.097107485
-0.026938505 0.06981451 0.10635326 -0.047632918 -0.032815415 -0.10662659 -0.0135090025 0.03191801
0.104986586 -0.039639883 0.14164478 0.039783794 -0.12488472 -0.069277085 -0.07085089 0.057291895
-0.055087354 -0.047174346 0.06955083 -0.067997135 0.06619788 0.0919491 -0.02285764 -0.030324463
0.05830501 0.1138862 -0.08149031 0.088375196 -0.035465974 -0.17472436 -0.022197952 0.04782992
-0.00911024 -0.010123041 -0.027184006 0.0533591 -0.0057351035 -0.02495807 -0.021313753 -0.03993283
-0.18063265 -0.14911251 -0.2244052 -0.12704541 0.018840516 -0.06449443 -0.12433168 -0.02682974
-0.12398356 -0.034290146 -0.004159182 -0.07537977 0.014513099 -0.010439819 0.10240619 0.032243975
0.038123943 0.06127155 0.025246339 -0.058881298 -0.024505584 -0.0151739335 -0.018754052 0.11348787
0.09222649 -0.18666263 -0.06372605 0.08834279 0.059657678 0.02336505 -0.13906203 0.11047537
0.07318706 -0.022962552 -0.06629497 -0.072675966 0.12751147 -0.024509508 -0.17315519 0.034833375
0.04239266 -0.15483308 0.015556938 0.022878138 -0.12521872 -0.010007998 0.057386253 -0.19573304
-0.06934305 -0.10910711 -0.047798667 -0.17036071 0.007016427 -0.0680129 -0.1717096 0.058582246
-0.15205416 -0.106251754 0.11763321 0.13344824 0.0102963615 -0.022294376 -0.0058604204 0.104096256
0.012413755 -0.068151906 -0.15687874 0.050185006 0.12408005 -0.021244014 -0.019015249 0.036758482
-0.03586168 -0.09015379 -0.0591718 0.008466228 -0.099796034 0.046049558 -0.03888681 0.020054206
-0.0672273 -0.021816323 0.033089742 -0.07626703 0.018568177 0.05421404 0.03537533 0.06481158
0.0029595788 0.11123962 -0.039722662 -0.016913183 0.121500134 -0.15541218 0.07887518 0.12482655
0.10348601 -0.04186614 0.0053666946 -0.12653838 0.00675177 0.02068095 -0.04518336 -0.03760484
-0.00037343387 -0.108239554 0.07970792 -0.2872145 -0.047766745 0.0679841 -0.0018452466 -0.043567013
00000000: e1df 453d f04b 61bc 8e1c ca3d 3ebf 16be
00000010: 9b25 033e a959 8cbd f722 b43d eedc 27bb
00000020: 2ed1 033e b831 9ebd f185 7a3d 7cd9 d8bd
00000030: 325d a83d 639c 013e 12e0 4dbe 0d50 063d
00000040: a238 0ebd 37ed 863c dff6 2c3d 15b4 fc3b
00000050: aada e4bc 36ec c6bd 7b14 bdbd f40e b7bd
00000060: 1c77 fd3d 70fe 003d 4de3 5e3d ca17 d3bd
00000070: 2efd 08bd 875e 22bd 468d ab3c 584a 33be
00000080: f4ae d73d de4c 14be 493c 963d b67d e53d
00000090: d74e 6dba 6ec8 d3bd fc25 1f3e 3575 c63d
000000a0: bcbf d8bc 7afb b3bd 19f2 553d 1a5e 9f3d
000000b0: 05ce 10be 5f13 bf3c 1869 6dbd c6b0 a53c
000000c0: 4539 59be e7a6 e73d 7d75 5b3e 6b38 eb3d
000000d0: ddbc 25be d9cd 083d 584e 483d 0a5b 46be
000000e0: f1e3 0ebd 1e3d a7bd 8af1 3a3d f217 a8bd
000000f0: 6f55 3c3d 2831 a4bd f939 e2bd 6800 c2bd
00000100: f1d4 143b a398 bebd 05b5 64bb 4af0 a63d
00000110: 80a5 06be 2efa 073e c962 88bd dafb 11be
00000120: 8717 c8bd 1f38 94bd 4f39 bbbd 8823 e23d
00000130: 779c 173e 5aef 54bd e7a2 51bc 2ee1 143d
00000140: edd0 ed3d d795 d93d 4044 1d3d f89e 61bd
00000150: 195f 7cbd 027e d6bd ad98 a8bb c852 f7bc
00000160: 112c 2e3c a3a5 393d 77eb 7b3b 2b50 a73d
00000170: 18ab 58bd 4bbe d4bc 1237 153e 9d24 f5bd
00000180: 20ed 68bd 1739 66bd 0a99 953d 7aff 64be
00000190: 97d9 97bd cf82 a63d dc02 b33d 4ae0 c6bd
000001a0: 24ae dcbc e9fa 8e3d bdcf d93d bc1a 43bd
000001b0: 7569 06bd 0b5f dabd dd54 5dbc 76bc 023d
000001c0: 3503 d73d 6e5d 22bd 540b 113e 55f4 223d
000001d0: 8fc3 ffbd 25e1 8dbd 451a 91bd e8aa 6a3d
000001e0: 47a3 61bd e339 41bd aa70 8e3d 1542 8bbd
000001f0: c192 873d cf4f bc3d f23f bbbc 026b f8bc
00000200: 3cd1 6e3d 2b3d e93d 64e4 a6bd 0efe b43d
00000210: c544 11bd f1ea 32be 7bd8 b5bc 4ee9 433d
00000220: 1e43 15bc 1ddb 25bc feb0 debc 128f 5a3d
00000230: 89ed bbbb de74 ccbc 2e9a aebc 9b90 23bd
00000240: c4f7 38be f3b0 18be 7aca 65be 3118 02be
00000250: 6d57 9a3c a815 84bd 9ca1 febd 0bca dbbc
00000260: 18eb fdbd d373 0cbd bf49 88bb b560 9abd
00000270: 59c8 6d3c c60b 2bbc 56ba d13d 4212 043d
00000280: da27 1c3d e0f7 7a3d 69d1 ce3c 842d 71bd
00000290: efbf c8bc 179c 78bc 19a2 99bc 546c e83d
000002a0: 3ee1 bc3d 7d24 3fbe ce82 82bd 11ed b43d
000002b0: 9c5b 743d 1068 bf3c 4766 0ebe e940 e23d
000002c0: 19e3 953d f61b bcbc a8c5 87bd 23d7 94bd
000002d0: 5e92 023e 2ac8 c8bc 984f 31be 71ad 0e3d
000002e0: eda3 2d3d 908c 1ebe 87e2 7e3c ef6a bb3c
000002f0: 5639 00be 96f8 23bc d90d 6b3d 3e6e 48be
00000300: bb03 8ebd 8c73 dfbd 89c8 43bd 0a73 2ebe
00000310: 0eea e53b 594a 8bbd a4d4 2fbe f0f3 6f3d
00000320: 16b4 1bbe 859a d9bd aee9 f03d a8a6 083e
00000330: 12b2 283c b2a2 b6bc c508 c0bb 6b30 d53d
00000340: 1063 4b3c 3a93 8bbd d2a4 20be cb8e 4d3d
00000350: ae1d fe3d ed07 aebc dec5 9bbc 1090 163d
00000360: b2e3 12bd 8da2 b8bd 215e 72bd efb5 0a3c
00000370: dd61 ccbd 769e 3c3d c747 1fbd b848 a43c
00000380: 77ae 89bd 25b8 b2bc 1c89 073d e331 9cbd
00000390: 4a1c 983c 8b0f 5e3d b9e5 103d efbb 843d
000003a0: 7ef5 413b 99d1 e33d 3bb4 22bd 848d 8abc
000003b0: 10d5 f83d 5f24 1fbe 4f89 a13d 10a5 ff3d
000003c0: 79f0 d33d d47b 2bbd 19db af3b 4793 01be
000003d0: f43d dd3b 186b a93c 3012 39bd 8807 1abd
000003e0: 72c9 c3b9 b3ac ddbd e83d a33d c70d 93be
000003f0: 10a7 43bd 3f3b 8b3d 34dc f1ba 5373 32bd

network_body._body_endoder.seq_layers.2.bias f4 [128]
0.0 0.0 0.0 0.0 0.0 0.0 0.0 0.0
0.0 0.0 0.0 0.0 0.0 0.0 0.0 0.0
0.0 0.0 0.0 0.0 0.0 0.0 0.0 0.0
0.0 0.0 0.0 0.0 0.0 0.0 0.0 0.0
0.0 0.0 0.0 0.0 0.0 0.0 0.0 0.0
0.0 0.0 0.0 0.0 0.0 0.0 0.0 0.0
0.0 0.0 0.0 0.0 0.0 0.0 0.0 0.0
0.0 0.0 0.0 0.0 0.0 0.0 0.0 0.0
0.0 0.0 0.0 0.0 0.0 0.0 0.0 0.0
0.0 0.0 0.0 0.0 0.0 0.0 0.0 0.0
0.0 0.0 0.0 0.0 0.0 0.0 0.0 0.0
0.0 0.0 0.0 0.0 0.0 0.0 0.0 0.0
0.0 0.0 0.0 0.0 0.0 0.0 0.0 0.0
0.0 0.0 0.0 0.0 0.0 0.0 0.0 0.0
0.0 0.0 0.0 0.0 0.0 0.0 0.0 0.0
0.0 0.0 0.0 0.0 0.0 0.0 0.0 0.0
00000000: 0000 0000 0000 0000 0000 0000 0000 0000
00000010: 0000 0000 0000 0000 0000 0000 0000 0000
00000020: 0000 0000 0000 0000 0000 0000 0000 0000
00000030: 0000 0000 0000 0000 0000 0000 0000 0000
00000040: 0000 0000 0000 0000 0000 0000 0000 0000
00000050: 0000 0000 0000 0000 0000 0000 0000 0000
00000060: 0000 0000 0000 0000 0000 0000 0000 0000
00000070: 0000 0000 0000 0000 0000 0000 0000 0000
00000080: 0000 0000 0000 0000 0000 0000 0000 0000
00000090: 0000 0000 0000 0000 0000 0000 0000 0000
000000a0: 0000 0000 0000 0000 0000 0000 0000 0000
000000b0: 0000 0000 0000 0000 0000 0000 0000 0000
000000c0: 0000 0000 0000 0000 0000 0000 0000 0000
000000d0: 0000 0000 0000 0000 0000 0000 0000 0000
000000e0: 0000 0000 0000 0000 0000 0000 0000 0000
000000f0: 0000 0000 0000 0000 0000 0000 0000 0000
00000100: 0000 0000 0000 0000 0000 0000 0000 0000
00000110: 0000 0000 0000 0000 0000 0000 0000 0000
00000120: 0000 0000 0000 0000 0000 0000 0000 0000
00000130: 0000 0000 0000 0000 0000 0000 0000 0000
00000140: 0000 0000 0000 0000 0000 0000 0000 0000
00000150: 0000 0000 0000 0000 0000 0000 0000 0000
00000160: 0000 0000 0000 0000 0000 0000 0000 0000
00000170: 0000 0000 0000 0000 0000 0000 0000 0000
00000180: 0000 0000 0000 0000 0000 0000 0000 0000
00000190: 0000 0000 0000 0000 0000 0000 0000 0000
000001a0: 0000 0000 0000 0000 0000 0000 0000 0000
000001b0: 0000 0000 0000 0000 0000 0000 0000 0000
000001c0: 0000 0000 0000 0000 0000 0000 0000 0000
000001d0: 0000 0000 0000 0000 0000 0000 0000 0000
000001e0: 0000 0000 0000 0000 0000 0000 0000 0000
000001f0: 0000 0000 0000 0000 0000 0000 0000 0000

value_heads.value_heads.extrinsic.weight f4 [1, 128]
0.00279589 -0.07774788 -0.19881351 0.12958357 -0.07621078 -0.17298214 0.20839411 -0.11951281
-0.076884344 -0.0042530447 -0.134215 -0.19951268 0.05096945 0.14567196 -0.057028502 0.04356605
0.10017836 0.19559035 0.09047896 0.08024177 0.014612779 0.18711254 -0.057964638 -0.016711071
0.01168184 0.027776882 -0.19839579 -0.08882606 -0.082926065 0.13557959 -0.1996121 -0.21502842
0.042283773 -0.0020386428 -0.19912702 0.0012403429 0.021823063 -0.20405367 0.0041341335 -0.15591633
0.08776903 -0.012370452 0.11038023 0.11023253 -0.032633707 -0.20795755 -0.07933682 -0.050705522
-0.18944383 0.10240278 0.11723891 -0.19048305 -0.14664069 0.071890384 -0.09928121 0.19267276
0.18880945 -0.10327523 0.15878442 0.07317671 -0.1031463 0.112893015 -0.17307724 0.110054344
-0.17205122 -0.10473493 -0.18351802 -0.15195107 0.0071265697 -0.14171666 0.16869262 0.104613096
-0.035036713 -0.14895882 -0.11809201 -0.15567514 0.012138486 -0.19021735 0.1610761 -0.08927621
-0.04955788 -0.105740115 -0.056188762 0.10105911 0.016593471 0.16221285 -0.13054846 -0.2042269
0.13862869 0.17181182 -0.02452229 -0.21482357 -0.052554145 -0.13223115 0.20200604 -0.1271003
0.0797137 -0.16958 -0.10960561 0.15160224 0.12348765 -0.07941246 0.02099365 0.16504714
0.17680165 -0.21392418 -0.19702163 0.08972511 0.119843334 0.0855408 0.14583841 0.12768617
-0.019841492 -0.033403262 -0.21013778 -0.028890759 -0.1732845 0.03615424 0.035325974 0.15547073
-0.041881636 0.119136274 0.16631964 0.14083523 0.20132363 -0.20534374 -0.024984315 0.18674132
00000000: 403b 373b 483a 9fbd c595 4bbe 8eb1 043e
00000010: 6614 9cbd 3b22 31be 4465 553e 22c3 f4bd
00000020: 8a75 9dbd 205d 8bbb a86f 09be 0d4d 4cbe
00000030: 58c5 503d 082b 153e b896 69bd 5072 323d
00000040: 502a cd3d d648 483e 084d b93d cc55 a43d
00000050: 706a 6f3c 6e9a 3f3e 546c 6dbd a8e5 88bc
00000060: 3065 3f3c 588c e33c 4428 4bbe 70ea b5bd
00000070: 24d5 a9bd 60d5 0a3e 1d67 4cbe 6930 5cbe
00000080: c031 2d3d c09a 05bb f4e7 4bbe 0093 a23a
00000090: 48c6 b23c 72f3 50be a077 873b 88a8 1fbe
000000a0: 40c0 b33d 70ad 4abc 080f e23d 98c1 e13d
000000b0: ecaa 05bd d3f2 54be 587b a2bd 98b0 4fbd
000000c0: 90fd 41be 8cb8 d13d f41a f03d fd0d 43be
000000d0: fa28 16be 443b 933d f253 cbbd 024c 453e
000000e0: 4457 413e f781 d3bd 6298 223e acdd 953d
000000f0: 5e3e d3bd 7434 e73d 293b 31be 2c64 e13d
00000100: 322e 30be 447f d6bd 26ec 3bbe 1099 1bbe
00000110: 0086 e93b 2c1e 11be c2bd 2c3e 643f d63d
00000120: a882 0fbd a988 18be 39da f1bd 4e69 1fbe
00000130: 80e0 463c 56c8 42be 22f1 243e 72d6 b6bd
00000140: 34fd 4abd 468e d8bd 3026 66bd 14f8 ce3d
00000150: 08ef 873c 201b 263e 7fae 05be db20 51be
00000160: aef4 0d3e 70ef 2f3e f8e2 c8bc b6fa 5bbe
00000170: 0443 57bd 9a67 07be acda 4e3e 9526 02be
00000180: f040 a33d 61a6 2dbe e878 e0bd 9e3d 1b3e
00000190: 18e7 fc3d 00a3 a2bd e0fa ab3c 1e02 293e
000001a0: 7e0b 353e f10e 5bbe 0ac0 49be ccc1 b73d
000001b0: 6c70 f53d 0430 af3d aa56 153e 2ac0 023e
000001c0: a08a a2bc dcd1 08bd 5c2e 57be 50ac ecbc
000001d0: 7e71 31be 7816 143d f8b1 103d b833 1f3e
000001e0: 148c 2bbd b8fd f33d b24f 2a3e 1c37 103e
000001f0: c827 4e3e a145 52be e8ab ccbc 1e39 3f3e
