Assets/Scripts/Car-230931.onnx (onnx, 180914 bytes, 8 tensors)

action_model._continuous_distribution.log_sigma f4 [1, 2]
0	0xbef7c5cd	-0.48393098
1	0xbf83f280	-1.030838

action_model._continuous_distribution.mu.bias f4 [2]
0	0xbd4847f6	-0.048896752
1	0x3cf8ab5e	0.030355152

action_model._continuous_distribution.mu.weight f4 [2, 128]
0	0x3d92c746	0.07166915
1	0x3d750585	0.059819717
2	0x3dc17ab0	0.09447229
3	0x3d944fe5	0.07241801
4	0x3dd1ec8a	0.10250194
5	0xbb0c4161	-0.0021401274
6	0x3e078a96	0.1323646
7	0xbc5ebf6e	-0.013595445
8	0x3d8bce22	0.06826426
9	0x3c407188	0.011745818
10	0x3da44707	0.0802136
11	0x3db66368	0.08905679
12	0x3d6c2f15	0.05766209
13	0x3d765775	0.060142
14	0x3db4c40c	0.088264555
15	0x3c19cfb5	0.0093879
16	0x3d64c5ec	0.055852816
17	0xbc870654	-0.01648251
18	0x3b33183e	0.0027327682
19	0x3ddcfff6	0.10791008
20	0xbc9fe0ab	-0.01951631
21	0x3da2eee1	0.07955719
22	0xbca24043	-0.019806033
23	0x3da45351	0.08023704
24	0x3cf6e436	0.030138116
25	0x3d9bfdc2	0.0761676
26	0x3dcef6b0	0.10105646
27	0x3dbaf38d	0.09128485
28	0x3dc1f71d	0.09470961
29	0x3d0e6a3b	0.034769278
30	0x3cf41972	0.02979729
31	0x3dbd43f2	0.09241475
32	0x3db13590	0.08652794
33	0x3d55df2f	0.052214798
34	0x3da9a1e7	0.082828335
35	0xbce9f764	-0.028560348
36	0x3dc2c029	0.09509308
37	0xbc1f764a	-0.009732792
38	0x3db144dc	0.08655712
39	0x3cd45e9a	0.025924016
40	0x3bc22dd2	0.0059258724
41	0x3dac9531	0.084268935
42	0x3e0ee068	0.13952792
43	0xbcea2b08	-0.028584972
44	0x3d5f5071	0.054520074
45	0xbbadc510	-0.0053030327
46	0x3dc26860	0.09492564
47	0xbc9fe37c	-0.019517653
48	0x3da81048	0.082062304
49	0x3d9f7f4f	0.07787954
50	0xbc428cbc	-0.011874374
51	0x3d80a12b	0.0628074
52	0xba45666b	-0.0007530215
53	0x3cfaebb9	0.03062998
54	0x3cd9e759	0.026599573
55	0x3d97873d	0.073988415
56	0x3db58077	0.08862393
57	0x3db0e05d	0.08636544
58	0x3d9ee42b	0.07758363
59	0x3d7d8d86	0.061902545
60	0x3d10869a	0.035284616
61	0x3ddd0973	0.10792818
62	0x3c935372	0.017984126
63	0x3db9408e	0.09045516
64	0x3da9e005	0.082946815
65	0x3dc7f16f	0.09762847
66	0xbaa32909	-0.0012448143
67	0xbc0af806	-0.008481985
68	0x3de47c2c	0.111564964
69	0x3df16334	0.117864996
70	0xbd2e7e4d	-0.04260092
71	0xbc107a68	-0.008818246
72	0x3d9a3f2c	0.0753158
73	0x3dd18de3	0.10232141
74	0x3a3529c6	0.0006910827
75	0x3e063eda	0.13109913
76	0x3e15f142	0.14642814
77	0xbe109b7b	-0.14121811
78	0x3dd657fb	0.10466
79	0x3d838c61	0.064232595
80	0x3d244d93	0.040113043
81	0x3d7f0cbe	0.06226801
82	0x3e16aa3e	0.1471338
83	0xbc319326	-0.010838306
84	0x3d8f6968	0.070025265
85	0x3d99154a	0.07474764
86	0xbd374305	-0.04474165
87	0x3dbad843	0.0912328
88	0x3c72d71a	0.014821792
89	0x3d045204	0.03230478
90	0x3d8ec0ab	0.06970342
91	0x3dcdd33a	0.10050054
92	0xbb310f05	-0.002701701
93	0x3d9ae206	0.07562642
94	0x3b657b87	0.0035016255
95	0x3d9f7fdf	0.07788061
96	0x3d53feee	0.05175679
97	0x3df45f0e	0.11932193
98	0x3def7fd6	0.11694305
99	0xbdb10f2d	-0.08645473
100	0x3c068500	0.008210421
101	0xbc270bfb	-0.010195727
102	0xbc4ce118	-0.012504838
103	0x3d46c39e	0.0485264
104	0xba8fd24b	-0.0010972706
105	0xbd80b1f5	-0.062839426
106	0xbd839aae	-0.06425987
107	0x3d3914df	0.04518592
108	0x3de7f1cb	0.11325415
109	0xbc577964	-0.0131515
110	0x3e1616b7	0.14657103
111	0x3dc574b5	0.09641401
112	0xbc295e52	-0.010337429
113	0x3c1eba14	0.009687919
114	0x3dfd26d2	0.1236092
115	0x3dfac3e0	0.122443914
116	0xbd147471	-0.03624386
117	0xbd224c81	-0.03962374
118	0x3c78ec0f	0.0151929995
119	0x3dc8c3bd	0.09802959
120	0x3c7dc832	0.015489625
121	0x3d7e1f17	0.06204137
122	0xbc81c2c4	-0.015839942
123	0x3dd54816	0.1041414
124	0x3d09eacf	0.033671197
125	0xbc0064cd	-0.007836533
126	0xbc87a75d	-0.016559297
127	0x3ceb67c9	0.028736012
128	0xbd664602	-0.05621911
129	0xbd3f1a04	-0.04665567
130	0xbd1c8529	-0.03821293
131	0xbba7152b	-0.005098959
132	0xbcc41764	-0.023936935
133	0xbda8876a	-0.08228953
134	0xbc6714dd	-0.014104095
135	0xbc6dd22d	-0.014515442
136	0xbb907c0e	-0.0044093197
137	0xbd9dfa0b	-0.077137075
138	0xbcc82315	-0.02443079
139	0xbc421f4a	-0.01184828
140	0xbd7d62db	-0.061861854
141	0xbd28f9a1	-0.04125369
142	0xbd4da871	-0.050209466
143	0xbc558276	-0.013031593
144	0xbd706aa3	-0.058695447
145	0x3d457fe4	0.04821767
146	0xbd4950bf	-0.04914927
147	0xbcebdcd3	-0.02879182
148	0x3c5f149c	0.0136157535
149	0xbd4f1b81	-0.05056334
150	0xbc2c9c91	-0.010535375
151	0xbc7e8c94	-0.015536446
152	0x3ca4a812	0.020099673
153	0xbd660f3e	-0.05616688
154	0xbd04e4c8	-0.032444745
155	0xbd7137e3	-0.05889119
156	0xbbc80b3d	-0.0061048553
157	0xbc60051d	-0.013673094
158	0xbcfcbfad	-0.030853117
159	0x3c3ba3eb	0.011452655
160	0xbcdb3fc6	-0.026763808
161	0xbd37edbe	-0.044904463
162	0xbd2a8d39	-0.041638587
163	0xbdac19dd	-0.084033705
164	0xbd1018c8	-0.035179883
165	0xbc071c26	-0.008246457
166	0xbc9c45b7	-0.019076211
167	0xbd11122b	-0.035417717
168	0x3ad0b498	0.0015922962
169	0xbd0f1d4d	-0.034940053
170	0xbd296590	-0.041356623
171	0x3d9508ae	0.07277046
172	0xbbe78830	-0.0070657954
173	0x3a76cdf3	0.0009414844
174	0xbd58609f	-0.05282652
175	0xbbd43e65	-0.0064771646
176	0xbd56eda3	-0.05247272
177	0xbd258649	-0.040411267
178	0xbc0638b8	-0.008192234
179	0xbd145f42	-0.036223657
180	0xbc2a2cbf	-0.010386645
181	0xbd566da4	-0.052350655
182	0xbd15fcd3	-0.036618065
183	0x3adb6968	0.0016739788
184	0xbc09eeaf	-0.008418723
185	0xbd0ebb53	-0.034846615
186	0xbd42926c	-0.04750292
187	0xbd6ff4de	-0.058583133
188	0xbd400363	-0.04687823
189	0xbbc45f14	-0.0059927795
190	0x3b8e191d	0.00433649
191	0xbcb7a64c	-0.022418164
192	0xbd42e196	-0.047578417
193	0xbd1d142f	-0.038349327
194	0xbc2ea4db	-0.010659422
195	0xbbf8280e	-0.0075731343
196	0xbcc34b96	-0.023839753
197	0xbd0907ca	-0.033454694
198	0xbbc028a1	-0.0058642183
199	0xbd003a41	-0.031305555
200	0xbd3a9667	-0.04555359
201	0xbb43c671	-0.002987292
202	0xbc558049	-0.013031074
203	0xbd3723dc	-0.044711933
204	0xbcb9ebfe	-0.022695538
205	0xbc1d2cc6	-0.009593194
206	0xbd2b64d5	-0.041844208
207	0xbd16eab7	-0.036844935
208	0xbbd29a53	-0.0064270883
209	0xbd0001a5	-0.03125157
210	0xbcdb959c	-0.026804738
211	0x3bb96871	0.0056582023
212	0xbce6281c	-0.028095298
213	0x3be986cc	0.0071266647
214	0xbd16644a	-0.036716737
215	0xbcb73b61	-0.022367181
216	0x3c80cd6b	0.01572295
217	0xba5afde2	-0.00083538715
218	0xbd28cad5	-0.04120906
219	0xbcf85bbc	-0.03031718
220	0xbb88fe8f	-0.0041807364
221	0xbcd8197f	-0.026379345
222	0xbc105ddd	-0.008811441
223	0xbd2f9fc4	-0.042876974
224	0xbd087111	-0.033310954
225	0xbd411268	-0.047136694
226	0xbc40e8e8	-0.011774279
227	0xbd2e5b7e	-0.042567722
228	0xb9637ee4	-0.00021695677
229	0xbd001dac	-0.031278297
230	0xbaaa536d	-0.0012994834
231	0x3d16687a	0.03672073
232	0xbc856b1b	-0.016286423
233	0xbd06f2ec	-0.032946512
234	0xbdc35eb1	-0.09539545
235	0xbbfa7aea	-0.007644047
236	0xbd7373cc	-0.059436604
237	0xbc1fd8dc	-0.009756293
238	0xbd19e952	-0.037576027
239	0xbcfa5ec1	-0.03056276
240	0xbc102238	-0.008797221
241	0xbcb03791	-0.021510871
242	0xbc30a21c	-0.010780837
243	0xbca2e70c	-0.019885562
244	0xbcc48c18	-0.023992583
245	0x3d0b30df	0.033982154
246	0xbc521b2b	-0.01282386
247	0xbc66d671	-0.014089213
248	0x3ad692a7	0.001637061
249	0xbd927c58	-0.07152623
250	0x3d93acea	0.07210715
251	0xbd7b15b0	-0.06129998
252	0xbcd85f0c	-0.02641251
253	0xbc467d7a	-0.012114877
254	0x3c23232b	0.009957115
255	0x3cb70417	0.022340817

action_model._discrete_distribution.branches.0.weight f4 [1, 128]
0	0x3b1d0c43	0.0023963607
1	0x3badfc4b	0.0053096167
2	0x3b049f6f	0.0020236631
3	0x3ba488b0	0.005021177
4	0x3c3fbf0d	0.011703265
5	0x3a628703	0.0008641334
6	0xbc154c62	-0.009112449
7	0xbc4b56b7	-0.012410811
8	0xbb54ea88	-0.0032488424
9	0xbc2940c6	-0.010330385
10	0xbb553cb5	-0.0032537405
11	0xbc33ffb6	-0.010986259
12	0x3c0e040a	0.008667955
13	0xbb2b5293	-0.0026141747
14	0xbafb8e3a	-0.0019192167
15	0x3b9303ea	0.0044865506
16	0x3c16615a	0.009178484
17	0x3c700db2	0.014651703
18	0x3b092030	0.0020923726
19	0xbc311fd8	-0.010810815
20	0xbba5e71a	-0.00506295
21	0x3c822054	0.015884556
22	0xbcad4a55	-0.021153608
23	0x39729923	0.00023135966
24	0x3c7c01a7	0.015381253
25	0x3c030323	0.007996353
26	0x3cb0abb2	0.021566246
27	0xbbb91536	-0.0056482805
28	0xbbf22db2	-0.007390701
29	0xbc2da963	-0.010599467
30	0xbbbc1337	-0.0057395953
31	0xba8dd77a	-0.0010821663
32	0xbbf96315	-0.0076106885
33	0xbc0575d7	-0.008145771
34	0x3bce94ef	0.0063043754
35	0x3c20e5da	0.009820426
36	0xbc139585	-0.009007816
37	0x3c47a45b	0.0121851815
38	0x3b6ba72d	0.0035957799
39	0x3b801f94	0.0039100144
40	0xbca29e43	-0.019850856
41	0xbbe44497	-0.0069661844
42	0xbbdc27fd	-0.006718634
43	0x3a048d30	0.0005056439
44	0x3c764822	0.015031846
45	0x3bd47975	0.0064842054
46	0x3b057a98	0.002036726
47	0xbc610695	-0.013734479
48	0xbc8b4faf	-0.01700577
49	0x3c26f55f	0.010190337
50	0xbc3b9ed5	-0.011451443
51	0x3b1c4b80	0.0023848712
52	0xbb4c9893	-0.003121887
53	0xbc29c037	-0.010360769
54	0xba470b97	-0.00075929746
55	0x3c539c13	0.012915629
56	0x3c189661	0.009313197
57	0x3aca3bd3	0.0015429206
58	0xbc81a95f	-0.015827833
59	0x3c598340	0.013275921
60	0xbb786df7	-0.003790734
61	0x3b9adda3	0.004726128
62	0xbc6a24ad	-0.014290971
63	0x3b13d5c5	0.0022557836
64	0xbc44c9db	-0.012011017
65	0xbc657710	-0.0140054375
66	0x39ba18e7	0.00035495238
67	0x3c227f74	0.0099180825
68	0xbbb9ab74	-0.0056661908
69	0xbb7d1f18	-0.003862327
70	0x3bdcacad	0.0067344517
71	0xbb20d781	-0.0024542513
72	0xbac37b9b	-0.0014914157
73	0x3b0636cd	0.002047944
74	0xbc04a3f3	-0.008095729
75	0xbc49ff8e	-0.012328995
76	0x3b125c8b	0.0022332992
77	0xbb712a35	-0.003679884
78	0xbb091bef	-0.002092119
79	0x3ba21217	0.004946004
80	0xbc62cc88	-0.013842709
81	0xbc643a4b	-0.013929914
82	0x3becf393	0.0072311847
83	0xbc16a64f	-0.0091949245
84	0x3c1b7cab	0.009490172
85	0xbba147cb	-0.0049218885
86	0x3c8b5931	0.017010303
87	0x3afc274f	0.0019237789
88	0xba67fc37	-0.00088495336
89	0x3afdf287	0.0019374647
90	0xbc063a2e	-0.008192582
91	0xbc63bad0	-0.01389952
92	0xbc49fd58	-0.012328468
93	0xbc9451ce	-0.018105414
94	0x3c923b0a	0.017850418
95	0x3a9104bf	0.0011064037
96	0x3bd1e22a	0.0064051347
97	0xbc775fba	-0.015098507
98	0xbc174fbf	-0.009235322
99	0x3bcd985d	0.0062742666
100	0x3b76663f	0.0037597565
101	0x3b23c4b0	0.002498906
102	0xbc43d94a	-0.011953661
103	0x3bf89f33	0.0075873374
104	0x3c06bbf1	0.00822352
105	0xbc14cad3	-0.00908156
106	0xbbe63832	-0.007025742
107	0xbb5c0fd8	-0.003357878
108	0xbb15c487	-0.0022852735
109	0xbac7fce8	-0.0015257867
110	0xbb45ab78	-0.0030162018
111	0x3bfb32fd	0.0076659904
112	0xbc827a0f	-0.015927343
113	0x3b16a9ab	0.0022989314
114	0x3ba7b407	0.0051178965
115	0x3aa7325b	0.0012756096
116	0x3c14f00e	0.009090437
117	0x3ae4298a	0.0017407399
118	0x3bf5043a	0.0074773105
119	0xba8aba86	-0.0010584153
120	0x3c15a0a7	0.009132541
121	0xbc5ff52d	-0.013669294
122	0x3c81dde3	0.015852874
123	0x3b319810	0.0027098693
124	0xbcf1dba7	-0.029523684
125	0x3b2ddbb4	0.0026528658
126	0x3c8a8cfa	0.016912926
127	0xbbce783f	-0.0063009555

network_body._body_endoder.seq_layers.0.bias f4 [128]
0	0xbd1b0a71	-0.037851755
1	0x3c04877b	0.008088942
2	0xbc3902a4	-0.0112921335
3	0xbce315b8	-0.027720317
4	0xbd0773cd	-0.03306942
5	0xbd2a4c74	-0.041576818
6	0xbca00734	-0.019534685
7	0xbca997b8	-0.020702228
8	0xbc9201b6	-0.017823081
9	0xbd6df938	-0.058099
10	0xbd2d6a02	-0.042337425
11	0x3b977794	0.004622409
12	0xbd77a001	-0.060455326
13	0xbd5cddae	-0.053922348
14	0xbd9c9761	-0.07646061
15	0xbd8eb64b	-0.069683634
16	0xbd76e554	-0.060277298
17	0xbd42b58c	-0.047536418
18	0xbd6fe3ab	-0.05856673
19	0xbc1e4703	-0.009660485
20	0xbd838bd7	-0.06423157
21	0xbd87dd16	-0.06633966
22	0x3be031c4	0.00684187
23	0x3cbe913c	0.023262613
24	0xbd40ac37	-0.047039237
25	0xbd2140a8	-0.0393683
26	0xbd00f7a0	-0.031486154
27	0xbd94af2f	-0.07259976
28	0xbdfba69b	-0.12287637
29	0xbdb2d3f9	-0.08731837
30	0xbc8bb954	-0.017056145
31	0xbd8558df	-0.065110914
32	0xbbe60f57	-0.0070208716
33	0xbcbf7f54	-0.023376144
34	0xbd8dc9c3	-0.069232486
35	0xbc1edb1b	-0.0096957935
36	0xbcafa2ef	-0.021439997
37	0xbda4415b	-0.08020278
38	0x3cb4b00f	0.022056608
39	0xbd8fbe68	-0.07018739
40	0xbdb08299	-0.086186595
41	0xbd986d8c	-0.074427694
42	0xbd8d66c9	-0.0690437
43	0xbd92d256	-0.07169025
44	0xbda30250	-0.079594254
45	0xb9fe8817	-0.0004854805
46	0xbd8e2a23	-0.06941631
47	0xbd21b2a9	-0.039477024
48	0xbd88d40a	-0.06681068
49	0xbaefd784	-0.0018298482
50	0xbd971f10	-0.073789716
51	0xba0adca0	-0.0005297158
52	0xbd66cedf	-0.05634963
53	0xbd9418f9	-0.07231326
54	0xbcc8359a	-0.024439622
55	0xbb1b58ae	-0.002370398
56	0xbc3bbf20	-0.011459142
57	0xbd89a22e	-0.067203864
58	0xbdac0c48	-0.0840078
59	0xbd1b9dfd	-0.037992466
60	0xbd8031b4	-0.0625948
61	0xbd3374cc	-0.043812558
62	0xbc87f5e5	-0.016596744
63	0xbd5f940f	-0.05458456
64	0xbd39e1d0	-0.045381367
65	0xbdc2d208	-0.095127165
66	0xbe0a0b10	-0.13480783
67	0xbd85c17f	-0.06531047
68	0x37cde8d3	2.4546322e-05
69	0xbcdf5326	-0.027261328
70	0x3c5ca23a	0.013466412
71	0xbc7ff0ca	-0.015621373
72	0xbd5a89ca	-0.053354062
73	0xbca15ae2	-0.019696657
74	0xbdaadf06	-0.083433196
75	0xbcd51231	-0.02600965
76	0xbd941889	-0.07231242
77	0xbd506195	-0.05087431
78	0xbcd1fd4d	-0.025633479
79	0xbcc0b481	-0.023523571
80	0xbd2b3280	-0.041796207
81	0xbcb2556b	-0.021769246
82	0xbd9300b6	-0.0717787
83	0xbd2e6f98	-0.042586893
84	0xbcdfbe23	-0.027312344
85	0x3c2e6423	0.010643992
86	0xbd3efd7d	-0.046628464
87	0xbd0e0ea0	-0.034681916
88	0xbd289687	-0.04115918
89	0xbd71cf15	-0.05903538
90	0xbd278f10	-0.04090792
91	0xbd1f764f	-0.038931187
92	0xbdb9f801	-0.09080506
93	0xbd2b7d48	-0.041867524
94	0xbd8968e5	-0.0670946
95	0xbd97fe87	-0.07421594
96	0xbdd3ebca	-0.103477076
97	0xbd84c4cc	-0.064828485
98	0xbcfe391e	-0.031033095
99	0xbd8c2119	-0.068422504
100	0xbd19a901	-0.03751469
101	0xbd5d7117	-0.05406293
102	0xbd48ee8f	-0.049055632
103	0x3d8fe1e2	0.070255056
104	0xbdb87ad7	-0.09007805
105	0xbd8218a3	-0.06352355
106	0xbd441d38	-0.047879428
107	0xbd3ac05f	-0.045593616
108	0xbe0fac10	-0.1403048
109	0xbdcef936	-0.10106127
110	0xbd75b542	-0.059987314
111	0xbd58f7b5	-0.052970607
112	0xbc457b12	-0.012053268
113	0xbd24116b	-0.040055674
114	0xbd19d638	-0.03755781
115	0x3d11df52	0.035613365
116	0x3c977e1a	0.018492747
117	0xbd86bb75	-0.06578723
118	0x3c135063	0.008991334
119	0x3cc442da	0.023957659
120	0xbc81bf9a	-0.015838433
121	0xbbfba83c	-0.007679967
122	0xbd160f6e	-0.03663581
123	0xbd046d3e	-0.032330744
124	0xbda68d1d	-0.08132384
125	0xbd406cc2	-0.04697872
126	0xbd724e5d	-0.059156764
127	0xbd513439	-0.051075194

network_body._body_endoder.seq_layers.0.weight f4 [128, 214]
0	0xbe2c8637	-0.16848074
1	0x3cd35bbc	0.025800578
2	0x3dfd4d76	0.1236829
3	0x3cb7d608	0.022440925
4	0xbda95e06	-0.08269887
5	0x3d2e5dd3	0.042569946
6	0xbcb1002b	-0.021606525
7	0x3d2350d6	0.039872013
8	0xbc708fdf	-0.014682739
9	0xbd68269f	-0.056677457
10	0xbb6509a6	-0.0034948378
11	0xbe118cf8	-0.14213932
12	0xbdc49fff	-0.09600829
13	0x3c1d23f2	0.00959109
14	0xbd862895	-0.06550709
15	0x3d9d920e	0.07693873
16	0xbe223fbf	-0.1584463
17	0xbda4e304	-0.08051112
18	0xbba2a5f1	-0.0049636294
19	0xbde0a0ea	-0.10968192
20	0xbd38ec35	-0.04514714
21	0xbd28a6e8	-0.0411748
22	0x3de81e8c	0.11333951
23	0xbde830ff	-0.1133747
24	0xbe122c68	-0.14274752
25	0xbb31a739	-0.002710773
26	0xbd6d270e	-0.057898574
27	0xbb36e3c1	-0.0027906748
28	0xbd3ed91a	-0.046593763
29	0x3c4c287b	0.012460823
30	0xbd8fa93c	-0.07014701
31	0xbac57eae	-0.0015067661
32	0xbe2fa7e8	-0.17153895
33	0x3d7b0a49	0.061289106
34	0x3bfbde6e	0.007686428
35	0xbe12df6c	-0.14343041
36	0x3db67e73	0.08910837
37	0x3deede19	0.116634555
38	0x3c7ff750	0.015622929
39	0xbd900d00	-0.070337296
40	0xbda09b38	-0.078421056
41	0xbd425c27	-0.047451165
42	0xbd1e0aa7	-0.038584378
43	0xbd6841e9	-0.05670348
44	0x3c95409f	0.01821929
45	0x3c592943	0.0132544665
46	0x3dd916e9	0.10600073
47	0x3d066b38	0.032817096
48	0xbdaf6333	-0.085638426
49	0xbcb111a3	-0.021614855
50	0x3c9efa28	0.019406393
51	0xbc9d749a	-0.019220639
52	0xbd369768	-0.044577986
53	0xbce4ab2b	-0.02791365
54	0x3e070fb4	0.13189584
55	0x3c929b2f	0.017896263
56	0xbd436b28	-0.047709614
57	0x3c54dad1	0.012991623
58	0xbc7ec86e	-0.015550716
59	0xbd226977	-0.03965136
60	0xbc72812c	-0.014801305
61	0xbd95a637	-0.073070936
62	0xbd7a7571	-0.061147157
63	0xbce0bc67	-0.027433587
64	0xbdb004f5	-0.085946955
65	0x3d4f371f	0.050589677
66	0x3d437588	0.04771951
67	0x3ca85d3d	0.020552272
68	0xbdd1cd86	-0.102442786
69	0x3dd4cddd	0.10390828
70	0xbdc8ddec	-0.09807953
71	0x3c958842	0.01825345
72	0xbdf131ab	-0.117770515
73	0x3cb03cf0	0.021513432
74	0xbd62d985	-0.055383224
75	0x3d176012	0.036956854
76	0xbd8d7090	-0.06906235
77	0x3ccdc0a9	0.025116282
78	0xbc343548	-0.010999031
79	0xbdce27b5	-0.10066167
80	0xbd6b77f5	-0.057487447
81	0x3d980150	0.07422125
82	0x3d9947b6	0.07484381
83	0xbd990b32	-0.074728385
84	0xbb3d9aa8	-0.0028931294
85	0x3d45b9ee	0.04827302
86	0xbdb265b4	-0.087108046
87	0xbe219a86	-0.15781602
88	0xbd9737f1	-0.07383717
89	0xbd86b18d	-0.06576834
90	0xbc619cff	-0.013770341
91	0x3d629bf6	0.055324517
92	0xbe2ca8f4	-0.16861326
93	0x3b1c90d5	0.0023890038
94	0xbd5fc0e5	-0.054627318
95	0x3d030af1	0.031992856
96	0xbd1ec3a0	-0.03876078
97	0x3d7b5bcd	0.061366845
98	0x3e0b3b41	0.13596822
99	0x3c776985	0.015100841
100	0xbb0f902a	-0.0021905997
101	0x3dc19e5b	0.09454032
102	0xbda55632	-0.08073081
103	0x3d1e8e6c	0.038710043
104	0xbc6aea51	-0.014338092
105	0x3cde53ee	0.02713963
106	0xbcf10899	-0.029423045
107	0xbdd635a0	-0.10459447
108	0xbd302023	-0.042999398
109	0xbdc2381f	-0.094833605
110	0xbd2b19b7	-0.04177257
111	0x3c87ec35	0.016592124
112	0x3c7216d6	0.014775952
113	0xbc813c8d	-0.015775943
114	0x3dfee588	0.12446123
115	0xbd053b85	-0.032527465
116	0x3c27a475	0.010232081
117	0xbd34d254	-0.044145897
118	0xbde6483e	-0.11244248
119	0xbc7f5ddb	-0.015586342
120	0xbdf6d271	-0.12051857
121	0xbbc4821e	-0.0059969565
122	0x3de813fc	0.11331937
123	0xbc6dcae8	-0.014513709
124	0xbdb2cbf4	-0.08730307
125	0xbd8d3a0c	-0.06895837
126	0x3d78893d	0.060677756
127	0x3dd4e1de	0.10394643
128	0x3d20adb3	0.039228152
129	0x3d601e93	0.054716658
130	0x3c487294	0.012234349
131	0x3da20041	0.07910205
132	0xbdb5e284	-0.08881095
133	0x3c2eafd9	0.010662043
134	0x3c19c958	0.009386383
135	0xbd4b01f5	-0.049562413
136	0xbd1f464c	-0.0388854
137	0xbe2d3ef7	-0.1691855
138	0xbde0d590	-0.10978234
139	0xbca3dbab	-0.020002207
140	0x3d883145	0.066500224
141	0x3ded0049	0.1157232
142	0x3d0da250	0.03457862
143	0x3b6db24f	0.003626961
144	0x3d2038dc	0.039116725
145	0x3c7db40c	0.015484821
146	0xbc60e2d6	-0.013725957
147	0xbdad8b48	-0.084738314
148	0xbd2eae48	-0.042646676
149	0x3c8d4839	0.017246353
150	0xbc62794a	-0.013822863
151	0xbe050cc6	-0.12993154
152	0xbd942a75	-0.072346605
153	0x3d98c2e4	0.074590474
154	0xbc6ffed2	-0.014648156
155	0xbbe29423	-0.006914632
156	0x3dd9e09b	0.10638543
157	0xbca3a886	-0.01997782
158	0xbd204468	-0.039127737
159	0xbc1ae89f	-0.009454875
160	0x3d8b25be	0.06794308
161	0x3ce0723f	0.027398227
162	0x3d88c950	0.06679022
163	0x3c6a57fc	0.014303204
164	0xbdb84627	-0.089977555
165	0xbda6199c	-0.08110353
166	0x3c0859e5	0.008322214
167	0xbd2fb6a7	-0.0428988
168	0x3d07b00c	0.033126876
169	0x3ab5f460	0.0013882034
170	0xbccb95e7	-0.024851752
171	0xbcd1ff57	-0.02563445
172	0x3d62e8dd	0.055397857
173	0x3cbfa8de	0.023395952
174	0x3c8c3b51	0.017118128
175	0xbcb0fdf9	-0.021605479
176	0xbdaac90c	-0.08339128
177	0xbd8045f4	-0.062633425
178	0x3c40c430	0.011765525
179	0x3c94be1b	0.018157056
180	0xbd2201e2	-0.039552577
181	0xbd96422c	-0.0733684
182	0x3d0d2456	0.03445848
183	0x3d4b4d8c	0.0496345
184	0xbcba4143	-0.022736197
185	0x3c2cd9ff	0.010550021
186	0xbde3262e	-0.110912666
187	0xbd79f2cf	-0.061022576
188	0xbda76443	-0.0817342
189	0xbc32d901	-0.010915996
190	0x3ddc5d4b	0.10759982
191	0xbdd1eaa7	-0.102498345
192	0xbcf6bbbe	-0.03011882
193	0x3dd7b104	0.1053181
194	0x3cb83102	0.022484306
195	0xbdb91496	-0.090371296
196	0x3cd5bfdd	0.026092464
197	0xbce445ad	-0.027865255
198	0xbd9910f1	-0.074739344
199	0x3cac1f41	0.021010997
200	0x3cab3a9d	0.020901972
201	0xbd6466e8	-0.0557622
202	0xbd96e419	-0.07367725
203	0xbc949e57	-0.018141909
204	0x3da772a7	0.08176165
205	0x3cafce44	0.02146066
206	0xbdc860ad	-0.097840644
207	0xbddac31b	-0.10681745
208	0xbda19726	-0.078901574
209	0xbc8acbdd	-0.016942913
210	0x392cfcc8	0.00016497367
211	0x3e215c14	0.15757781
212	0x3bea386b	0.007147839
213	0x3d90c9c1	0.070697315
214	0xbdf9de72	-0.12200631
215	0x3df8b28f	0.12143432
216	0xbd0a3681	-0.033743385
217	0x3dc83b68	0.09776956
218	0x3db57055	0.08859316
219	0x3cdde140	0.027084947
220	0x3d27dfeb	0.04098503
221	0x3d1cefde	0.038314693
222	0x3ebd8a4b	0.37019572
223	0x3d93b614	0.07212463
224	0x3daec257	0.08533161
225	0xbdd0f590	-0.10203087
226	0xbdb5a65a	-0.0886962
227	0x3e1b1abc	0.15146917
228	0x3d2a1942	0.041527994
229	0x3c8cf2d8	0.01720564
230	0xbc313c90	-0.010817662
231	0x3d658128	0.056031376
232	0x3d91f5a7	0.071269326
233	0xbd0b27b8	-0.033973426
234	0x3d85927d	0.06522081
235	0xbd405d30	-0.04696387
236	0x3dba7278	0.091038644
237	0x3dc551d7	0.0963475
238	0x3dd2aaac	0.10286459
239	0xbd370abe	-0.04468798
240	0xbc1167c3	-0.008874836
241	0x3d2cdd12	0.042203017
242	0xbe8ce319	-0.27517012
243	0x3d101c94	0.035183504
244	0xbcdadcb8	-0.026716575
245	0xbc566a55	-0.013086875
246	0x3e82659c	0.25468147
247	0x3d4deebc	0.050276503
248	0x3c4493c6	0.011998123
249	0xbd400022	-0.046875127
250	0x3d15d4e1	0.03657997
251	0xbcae169d	-0.021251017
252	0x3dbff6a0	0.09373212
253	0x3d1a9d39	0.037747595
254	0xbd865cbe	-0.06560658
255	0xbd7bc10a	-0.061463393

network_body._body_endoder.seq_layers.2.bias f4 [128]
0	0xbcc4146a	-0.023935515
1	0xbd035bfa	-0.032070138
2	0x3b84bde6	0.004050958
3	0xbdc46c65	-0.09590987
4	0xbd587b4e	-0.052851968
5	0xbb2c8f2c	-0.0026330454
6	0x3bf68302	0.0075229416
7	0xbdc62fec	-0.09677109
8	0xbd05a87f	-0.032631394
9	0x3d0362ab	0.03207652
10	0xbdadf4a3	-0.084939264
11	0xbd09c035	-0.03363057
12	0xbcaa7c9e	-0.020811375
13	0xbd91d74f	-0.07121145
14	0xbd32a844	-0.0436175
15	0xbdff920f	-0.1247903
16	0xbd94c678	-0.072644174
17	0xbcbefdac	-0.02331432
18	0xbcfeb067	-0.031089975
19	0xbd391dd8	-0.045194477
20	0xbdab69f6	-0.0836982
21	0xbcb3dba2	-0.021955315
22	0xbdff79e6	-0.12474422
23	0x3ccba053	0.024856722
24	0xbe0c3150	-0.13690686
25	0xbd608758	-0.054816574
26	0xbd781e90	-0.06057602
27	0xbd10dcb3	-0.035366725
28	0x3c1fbada	0.009749139
29	0xbe0f6847	-0.14004622
30	0xbe0b9a6c	-0.13633126
31	0xbd77d059	-0.06050143
32	0xbd812f12	-0.06307806
33	0xbd68f6f0	-0.056876123
34	0x3b802875	0.003911073
35	0x3c8eeca4	0.017446823
36	0xbcf47056	-0.029838722
37	0xbdb67557	-0.089090995
38	0xbd054791	-0.032538954
39	0xbd3670ff	-0.044541355
40	0xbdd8d9c6	-0.10588412
41	0xbc736875	-0.0148564475
42	0xbd167dbe	-0.03674101
43	0x3d0359d8	0.032068104
44	0xbdbdbe74	-0.09264842
45	0xbdfe2627	-0.12409621
46	0xbcccb190	-0.024987012
47	0xbe2f218b	-0.1710264
48	0xbd839e6f	-0.06426703
49	0xbd23f2e3	-0.040026557
50	0xbe11326c	-0.1417939
51	0xbd8d00c0	-0.06884909
52	0xbdd7ddd6	-0.10540359
53	0xbcb1a838	-0.021686658
54	0x3be9248d	0.007114953
55	0x3d045898	0.032311052
56	0xbc8830db	-0.016624859
57	0xbcd005a1	-0.02539331
58	0xbd85509c	-0.06509516
59	0xbd76ef00	-0.060286522
60	0xbda13c0a	-0.0787278
61	0xbbb8e701	-0.005642772
62	0xbe337f37	-0.17528997
63	0x3d140bcc	0.036144063
64	0xbd0a9dc6	-0.03384187
65	0xbc182388	-0.009285815
66	0xbe151d3e	-0.14561936
67	0xbe03e8be	-0.12881753
68	0xbc24c1e4	-0.010055993
69	0xbc032548	-0.008004494
70	0xbd83b273	-0.06430521
71	0xbdc9d0f8	-0.09854311
72	0xbd827444	-0.06369832
73	0x3c939d01	0.018019201
74	0xbe0c515e	-0.13702914
75	0x3a80b399	0.0009819149
76	0xbd46b1d2	-0.048509426
77	0xbc6e02d3	-0.0145270405
78	0xbd41cf4d	-0.047316838
79	0xbd77796e	-0.06041854
80	0xbd795a5d	-0.060877193
81	0xbd260362	-0.04053057
82	0x3c2cc1a5	0.010544215
83	0xbd469255	-0.048479397
84	0xbde2d092	-0.11074938
85	0xbb3c6b6b	-0.002875055
86	0xbc87688c	-0.016529344
87	0xbbbafb88	-0.0057062544
88	0xbe0b8a0c	-0.1362688
89	0xbd9f67ab	-0.07783445
90	0xbd8d4918	-0.06898707
91	0xbd61eea9	-0.055159245
92	0xbe2a763d	-0.16646667
93	0xbd2f843d	-0.04285072
94	0xbe25e398	-0.16200101
95	0xbd097564	-0.033559218
96	0xbdbb2863	-0.091385625
97	0x3a23010e	0.00062181137
98	0xbcd8df90	-0.02647379
99	0xbd453e05	-0.04815485
100	0xbdf2e1b7	-0.11859458
101	0xbab61448	-0.0013891542
102	0xbd9834cd	-0.07431946
103	0x3d2c581a	0.042076208
104	0xbdc365a2	-0.09540869
105	0xbd644523	-0.055729996
106	0xbd33be71	-0.04388279
107	0xbdb93a8a	-0.090443686
108	0x3cd2d333	0.025735473
109	0xbd6fe96a	-0.05857221
110	0xbbaac4ca	-0.0052114474
111	0xbc3453a3	-0.011006269
112	0xbe405ed8	-0.1878618
113	0xbd038455	-0.032108624
114	0xbccbe13f	-0.02488768
115	0xbc95e3d0	-0.018297106
116	0xbde18817	-0.11012285
117	0x3d0f97ad	0.03505676
118	0xbddb675d	-0.10713074
119	0xbd7fa160	-0.06240976
120	0xbe17e61e	-0.14833876
121	0x3a6e08b4	0.00090802764
122	0x3b051c2b	0.002031098
123	0xbd788105	-0.060669918
124	0xbd98e35f	-0.074652426
125	0xbdd86674	-0.105664164
126	0xbd4c682b	-0.04990403
127	0xbdf56ee0	-0.11984038

network_body._body_endoder.seq_layers.2.weight f4 [128, 128]
0	0xbce597aa	-0.02802642
1	0x3cb3ff2c	0.021972261
2	0xbd123f30	-0.03570479
3	0xbe0ae4af	-0.13563798
4	0x3c7eba7b	0.01554739
5	0xbd5ddc33	-0.054165076
6	0xbdbe920d	-0.09305201
7	0xbd971635	-0.073772825
8	0xbde76976	-0.11299412
9	0x3b0d4a40	0.002155915
10	0x3db7b2e0	0.089696646
11	0x3d174f9a	0.03694115
12	0xbd85ffe8	-0.06542951
13	0x3e3287c0	0.17434597
14	0x3d47cdb3	0.048780154
15	0x3d1b11d5	0.037858803
16	0x3d3e1058	0.046402305
17	0x3d9dd9df	0.07707571
18	0x3b97a891	0.004628249
19	0x3df32e26	0.118740365
20	0xbd8946a1	-0.067029245
21	0x3db8874b	0.0901018
22	0x3d860a73	0.06544962
23	0xbdf43e1c	-0.11925909
24	0x3c3525d8	0.011056386
25	0x3d05e49e	0.03268873
26	0x3d04e9f8	0.032449692
27	0xbe0177c1	-0.12643339
28	0x3de6ddfe	0.112728104
29	0xbd876b11	-0.06612218
30	0xbdd5e1f5	-0.104434885
31	0x3e0afa90	0.13572145
32	0x3cbd8100	0.023132801
33	0xbe1ce5d6	-0.1532205
34	0x3dd4311e	0.10360931
35	0x3d7c283f	0.06156182
36	0xbd8f4e3d	-0.06997345
37	0xbde0f762	-0.109846845
38	0x3bd63f87	0.006538335
39	0x3ddad48f	0.106850736
40	0xbd0ddeff	-0.034636494
41	0xbe29dbde	-0.16587779
42	0x3c781c56	0.015143475
43	0xbda4dbdf	-0.080497496
44	0xbdbf385f	-0.09336924
45	0xbe0655f2	-0.13118723
46	0x3cbfdd1d	0.023420865
47	0x3db64a74	0.089009196
48	0x3d7acecc	0.061232373
49	0x3c2d4427	0.010575331
50	0x3c247c06	0.010039335
51	0xbd7586ad	-0.05994289
52	0x3e26b4eb	0.16279952
53	0x3de0cf6a	0.10977061
54	0xbd3119b8	-0.043237418
55	0x3e132826	0.14370784
56	0x3ca51b50	0.020154625
57	0xbe1ef653	-0.15523653
58	0x3cdd6f1c	0.02703052
59	0x3e0148b8	0.12625396
60	0x3c6186bb	0.013765032
61	0xbda9ab2f	-0.08284604
62	0x3d298a89	0.041391883
63	0x3bf6006f	0.007507376
64	0x3a5edb03	0.0008501263
65	0x3db1f6bb	0.08689638
66	0xbe0e07d7	-0.13870178
67	0xbbc0eee0	-0.005887851
68	0x3ccfc20c	0.025361083
69	0x3dcc9220	0.09988809
70	0x3d36acf6	0.044598542
71	0x3ba9a492	0.005177089
72	0x3de1aa02	0.110187545
73	0x3e03ad02	0.12858966
74	0x3cba93a6	0.022775482
75	0xbe5c0af1	-0.21488549
76	0xbe616f93	-0.22015218
77	0xbcf1296c	-0.029438697
78	0x3d4c1a26	0.049829625
79	0xbd9f68e1	-0.07783676
80	0x3d92d50b	0.07169541
81	0x3c18e8cd	0.009332848
82	0x3d66f176	0.05638262
83	0xbc7a5ecd	-0.015281391
84	0x3d26bc17	0.04070672
85	0xbe4a3649	-0.1974727
86	0xbe9af24c	-0.30262983
87	0x3d397ab6	0.045283042
88	0x3e5c0ac6	0.21488485
89	0x3dea4801	0.11439515
90	0x3d86f023	0.06588771
91	0x3b08ad99	0.0020855425
92	0xbdb67ebf	-0.08910894
93	0xbd15c303	-0.03656293
94	0xbd19a1f4	-0.037507966
95	0xbe6473c1	-0.22309782
96	0xbe375b9f	-0.17906044
97	0x3c7f8f47	0.015598125
98	0xbc70d106	-0.014698273
99	0xbde7fe05	-0.11327747
100	0xbca1d872	-0.01975653
101	0x3d85bd92	0.06530298
102	0xbe7a4af7	-0.2444266
103	0xbe15f957	-0.14645897
104	0xbe69dc3e	-0.22837922
105	0x3d1e9723	0.038718354
106	0xbca84e19	-0.020545052
107	0xbbd2ffd4	-0.0064391885
108	0xbdde6840	-0.10859728
109	0xbcd0669a	-0.02543955
110	0x3bf49e93	0.0074651926
111	0xbe3d3213	-0.18476133
112	0xbe607643	-0.21920113
113	0xbe419a89	-0.18906607
114	0x3be51790	0.0069913343
115	0x3d40d2ca	0.047076024
116	0xbdaa954c	-0.08329257
117	0x3d0cb337	0.0343506
118	0xbd8ec37f	-0.06970882
119	0xbd78a503	-0.060704242
120	0x3e067feb	0.13134734
121	0x3dfa9b5e	0.12236665
122	0x3d429d7a	0.047513463
123	0xbe443e81	-0.19164468
124	0xbd4e8b71	-0.05042595
125	0x3dbe30f4	0.09286681
126	0xbbdb6ad5	-0.006696085
127	0x3dd80fed	0.105499126
128	0x3c750a53	0.014956075
129	0x3b318f0b	0.0027093317
130	0x3c81914d	0.015816355
131	0xbc35ec7e	-0.011103747
132	0x3cbb083e	0.022831079
133	0xbe0cb549	-0.1374103
134	0x3d1ef58e	0.038808398
135	0x3d871a1b	0.06596776
136	0xbd89103d	-0.0669255
137	0xbbbbd70b	-0.005732422
138	0xbe49d9e1	-0.1971202
139	0x3c913d81	0.017729523
140	0x3ddc3af5	0.10753433
141	0xbb617ef2	-0.003440794
142	0x3d4714c4	0.048603788
143	0xbe6cd891	-0.23129489
144	0xbe5eefef	-0.21771215
145	0x3e002270	0.12513137
146	0xbe821e95	-0.25413957
147	0x3d128fd2	0.03578169
148	0x3cfe6def	0.03105828
149	0xbd99a177	-0.075015
150	0xbdb5e418	-0.08881396
151	0xbd99409a	-0.07483025
152	0x3e633353	0.22187547
153	0xbe3ec62b	-0.18630283
154	0xbc8aab4e	-0.016927388
155	0xbd2a9185	-0.041642684
156	0xbe0f81a7	-0.14014302
157	0xbcb70cba	-0.022344936
158	0xbe3d0bc6	-0.18461522
159	0xbdb0aae9	-0.086263485
160	0x3ce79db0	0.028273433
161	0xbe4b0edf	-0.19829892
162	0xbd8a0160	-0.067385435
163	0xbc82f494	-0.015985765
164	0xbe923cf3	-0.28562126
165	0x3d481f58	0.048858017
166	0x3dcfa680	0.10139179
167	0xbc0eed21	-0.008723528
168	0x3e273e54	0.1633237
169	0xbe4f306c	-0.20233315
170	0x3d9c6144	0.076357394
171	0x3c05249a	0.008126402
172	0xbc4d1ae8	-0.012518622
173	0x3e1049a2	0.14090589
174	0xbae1590e	-0.0017192678
175	0x3d95a455	0.073067345
176	0xbddc4ab6	-0.107564375
177	0x3da6858d	0.081309415
178	0xbe2ceb75	-0.16886695
179	0xbd6bff16	-0.057616316
180	0x3d3898df	0.045067664
181	0xbd53af7b	-0.051681023
182	0x3d69c391	0.057071272
183	0x3dd2373b	0.102644406
184	0xbd2d3abc	-0.04229234
185	0xbda0f782	-0.07859708
186	0x3cffa9d7	0.031208916
187	0xbd34bd02	-0.044125564
188	0xbd159f99	-0.036529157
189	0x3b0156a1	0.0019735473
190	0x3d0385f4	0.03211017
191	0xbe4579a2	-0.1928468
192	0x3da12fd1	0.078704484
193	0xbdeb73c3	-0.11496689
194	0xbe608f99	-0.21929778
195	0x3d912006	0.07086186
196	0xbb24c81b	-0.0025143686
197	0x3d0bbfd6	0.034118496
198	0xbe3acf81	-0.18243219
199	0xbc196eba	-0.009364778
200	0x3d95e3a0	0.07318807
201	0xbc2a7dd9	-0.010405981
202	0x3e637251	0.22211577
203	0xbe3232c1	-0.17402174
204	0xbe8694fd	-0.26285544
205	0x3dced6f4	0.10099593
206	0x3bd288ba	0.0064249905
207	0xbe079b72	-0.13242891
208	0x3cb3015f	0.02185124
209	0xbd6c3d26	-0.057675503
210	0xbe09caee	-0.13456318
211	0x3d0b1ede	0.033964984
212	0x3d251e09	0.040311847
213	0x3d98ee3a	0.07467313
214	0xbdff3959	-0.1246211
215	0xbe06460a	-0.13112655
216	0x3b41e267	0.002958441
217	0xbbb006c6	-0.005371901
218	0xbe27a9a1	-0.16373302
219	0xbcea0103	-0.028564936
220	0xbe3a3dd0	-0.18187642
221	0xbd79b7f0	-0.060966432
222	0xbd5e8f63	-0.054335963
223	0xbe2b9e3b	-0.16759579
224	0x3df7f0d8	0.12106484
225	0x3dc1e184	0.09466842
226	0xbdfd193d	-0.123583294
227	0x3e3f4f1c	0.18682522
228	0xbd46c6ed	-0.048529554
229	0x3cb6c05f	0.022308527
230	0x3dbf9b8f	0.09355842
231	0xbdc6fffd	-0.09716795
232	0xbe8dddff	-0.27708432
233	0xbd11d2f8	-0.035601586
234	0xbd9ae01f	-0.07562279
235	0xbd2a3629	-0.041555557
236	0xbd2316b2	-0.039816566
237	0x3c84d839	0.016216384
238	0xbdc11e5b	-0.09429618
239	0x3e41b3b0	0.18916202
240	0xbe6ff00f	-0.23431419
241	0xbb578b79	-0.0032889529
242	0x3c968338	0.018373117
243	0x3d5cd494	0.053913668
244	0x3d5775f4	0.052602723
245	0x3d4e4f82	0.050368793
246	0xbdbe8248	-0.09302193
247	0x3d7c49a2	0.06159366
248	0xbdc42fc8	-0.09579426
249	0xbe091d27	-0.13390027
250	0x3cc5a80e	0.024127986
251	0x3dc74e84	0.097317725
252	0xbdd6a6a2	-0.104810014
253	0xbc43463f	-0.011918603
254	0xbd5782f1	-0.05261511
255	0xbd74d55b	-0.059773784
