Assets/Resources/model.onnx (onnx, 5023 bytes, 5 tensors)

sequential/dense_2/MatMul/ReadVariableOp:0 f4 [16, 1]
000000 b3 31 d0 3e f0 2f 38 be 8f e7 76 3e 0e 4d 89 be
       0.40662917 -0.17987037 0.2411177 -0.268166
000010 72 39 ac bd fa 43 0b 3f 00 c8 88 3d bd 3d 9c be
       -0.08409394 0.544006 0.06678772 -0.30515853
000020 49 4e a2 be af c6 c8 3e 8b 5a 38 3e 1e af 0b 3f
       -0.31700352 0.39214084 0.1800329 0.5456408
000030 66 ca 7b bd 1c 25 d6 3e 5c cb e8 be c7 8b e7 3e
       -0.06147232 0.41825187 -0.4546765 0.4522383

sequential/dense_1/MatMul/ReadVariableOp:0 f4 [32, 16]
000000 8a 16 52 bc b7 ac 98 be 03 d6 96 3e 8a 93 8e 3c
       -0.012822757 -0.2981927 0.29460153 0.017404336
000010 b6 04 14 3d 2c af b1 be 8a 01 85 3c 1a 56 c6 3e
       0.036137305 -0.34703958 0.016236085 0.38737565
000020 1f 55 02 be 64 64 8f 3d 7a 3c 4a bb 7e ba d1 3c
       -0.12727784 0.0700157 -0.00308588 0.025601622
000030 e8 0d a2 be 15 5c 33 3c a0 2c 72 be 8b b5 2e be
       -0.31651235 0.010947247 -0.23649836 -0.1706144
000040 54 5f 30 bd 6b eb 16 be d2 6a 9f 3c d6 9a 28 3e
       -0.043059662 -0.14738242 0.019460116 0.16465315
000050 39 be 78 3e b8 7c f1 3d de 82 03 3c 19 85 5b 3e
       0.24291314 0.11791366 0.008026807 0.21437491
000060 56 1f f7 be d6 ab ed 3b 80 b5 37 be bc 97 26 3e
       -0.48266095 0.0072531505 -0.1794033 0.1626882
000070 8f 88 92 be d9 b4 7e be e5 cc 9c be f1 7a 99 bd
       -0.2861981 -0.24873675 -0.30625072 -0.07494152
000080 e5 5f ac be 41 9c b3 3e 8c d5 97 3e a8 5c db 3d
       -0.33666912 0.3508015 0.2965511 0.10711032
000090 cb 4a a5 3c 21 65 94 3e aa c0 71 3e a4 19 38 3d
       0.020177266 0.28983405 0.23608652 0.044946328
0000a0 01 8b 09 3c 45 3a e2 bd 99 5f ed bd be 27 94 3e
       0.0083949575 -0.1104627 -0.115904994 0.2893657
0000b0 86 6c 2c 3e 74 f7 7a be eb 52 b3 be 5d e4 7c 3e
       0.16838273 -0.24508458 -0.350242 0.24696489
0000c0 0c 8a cd be 1d 2d 58 3e 07 d3 d8 bd 13 55 17 3e
       -0.40144384 0.2111096 -0.10587125 0.14778547
0000d0 4b e0 c3 bd d9 b2 0a 3d 80 f8 02 3e c0 fe 6b 3e
       -0.09564265 0.03386197 0.12790108 0.23046398
0000e0 ab 3f 2f 3e d0 0a 9b be 9a a3 96 3e 93 5d 68 3e
       0.17114131 -0.30281687 0.29421693 0.22691946
0000f0 0c 50 b5 be cb f2 24 3e ea 8e 4d 3e 90 cf 7b be
       -0.35412633 0.16108243 0.20074049 -0.24590898
000100 32 ef 56 be f8 9d ec 3d 3e d9 6f be f5 13 14 3e
       -0.20989683 0.11553568 -0.23422715 0.14460738
000110 a6 c5 9c be 51 9e 73 3e 2b 33 a5 be eb 67 8a be
       -0.30619544 0.23790862 -0.322656 -0.27032408
000120 e9 60 63 be 20 0a 94 be a4 1b b3 be fb d7 97 be
       -0.22204937 -0.28913975 -0.34982026 -0.29656968
000130 05 02 96 3e e6 2c 97 be dc 71 a9 bd bf df 75 3e
       0.29298416 -0.29526442 -0.0827367 0.24011134
000140 d3 ab f8 bd d8 2d f6 3d 23 dc 30 3e 54 27 55 be
       -0.12142148 0.12020463 0.17271475 -0.20815784
000150 7e cc 8a be ec 8b a8 bd 48 92 9c be 16 0d ad 3e
       -0.2710914 -0.08229813 -0.30580354 0.33799046
000160 55 79 a0 3e f1 fa 65 be 0a d8 8c 3d fd 99 49 be
       0.3134257 -0.22459008 0.06877144 -0.19687648
000170 b3 ce f4 bd d6 1d 1c 3e 0c f4 38 be 10 29 93 3d
       -0.11953487 0.15245757 -0.18061846 0.071855664
000180 90 61 94 3d 2c 82 34 3e 10 99 1e 3e 5f e7 d5 3e
       0.07245171 0.17627782 0.15488076 0.41778085
000190 63 80 06 3e 51 77 8c be 40 e4 7a 3e d1 da 92 bd
       0.13134913 -0.2743478 0.24501133 -0.07170642
0001a0 6d 14 95 be 96 79 74 3e f8 ab 09 3e 34 27 97 be
       -0.29117146 0.23874506 0.13444507 -0.29522097
0001b0 b6 9b 4d be 4a 54 56 bc 11 13 ad be 54 03 28 be
       -0.2007893 -0.0130816195 -0.3380361 -0.1640752
0001c0 8e e1 83 be 33 90 10 be 7e 93 56 bc 8d 24 13 3e
       -0.25758022 -0.14117508 -0.013096688 0.14369412
0001d0 6d e4 96 bd 5a b2 89 bd 50 4a 8e 3c 0d 27 95 be
       -0.073677875 -0.06723471 0.01736942 -0.29131356
0001e0 de fd 9c 3e e9 40 96 be 34 7b 1d be da 4a 65 be
       0.30662435 -0.29346398 -0.1537903 -0.22391835
0001f0 3b 22 f5 3d 90 68 85 3d d5 8a 18 be 8c a7 ae be
       0.119694196 0.06514084 -0.1489671 -0.34112203
000200 87 f6 f3 3d 5b c8 3b be bb 38 b0 be 07 68 09 3d
       0.11912256 -0.18338148 -0.34418282 0.033546474
000210 44 a6 12 be bb bb 77 be 32 d3 90 be 49 aa a5 be
       -0.14321238 -0.24192707 -0.2828613 -0.3235648
000220 db 5e 94 3e fb 69 db bd 05 65 81 3e 3b bd 4b be
       0.2897862 -0.107135735 0.25272384 -0.19896404
000230 b4 42 b5 3e 15 1d b6 be 60 d0 b5 3d cb 31 76 3e
       0.35402453 -0.35569063 0.08877635 0.24042432
000240 99 f7 47 3e c2 31 73 be c8 46 68 3e 58 82 8f 3d
       0.19528045 -0.2374945 0.22683251 0.07007283
000250 b8 72 87 3e 0c 11 86 be ba a5 3a 3e 0b 66 b5 3c
       0.2645471 -0.2618488 0.18227282 0.022143384
000260 72 dd 93 3d a1 c3 9f 3e d5 60 3e be 40 aa 8d 3e
       0.07219972 0.3120394 -0.18591626 0.27668953
000270 47 64 1b 3d f7 cb 87 be a2 4c 25 3e 6b e6 4f bd
       0.03793743 -0.265228 0.16142514 -0.050756853
000280 c9 3b 3b be 48 7d 98 3e 51 92 85 bc cd d0 83 be
       -0.18284525 0.29783082 -0.01630512 -0.2574524
000290 82 f9 3e bd bf 2a 94 be dc 4f ec 3d 42 b8 62 3e
       -0.046624668 -0.28938863 0.115386695 0.22140601
0002a0 e6 56 97 be 9a ea ce 3b b2 ae 58 3e 87 6b b5 3d
       -0.29558486 0.006314588 0.21160391 0.088584
0002b0 91 ee 12 3e 00 a5 35 be e6 c6 70 3e d4 53 f3 3d
       0.14348818 -0.17738724 0.23513374 0.11881223
0002c0 80 a6 45 3e d4 04 52 bd 83 4d be bd b3 0d 1d bd
       0.19301796 -0.051274136 -0.09292128 -0.038343143
0002d0 e0 51 d8 3e b2 cb fb bd 05 6d 8c be 52 51 19 be
       0.42249966 -0.12294711 -0.27426925 -0.14972427
0002e0 69 d7 3f bd 49 0e 36 be 65 cc 93 3e 9c 44 93 3e
       -0.04683629 -0.17778887 0.28866878 0.28763282
0002f0 03 95 9b be b2 82 dc bd 0d ff 94 be 73 e3 2d bd
       -0.30387124 -0.10767116 -0.29100838 -0.04245324
000300 15 ac 08 3d 2a 61 51 3e 74 56 71 be 55 15 73 be
       0.033367235 0.20447221 -0.23568135 -0.23738606
000310 87 da 97 3e a4 68 a0 be 75 b5 95 bc 3f 9c 62 bd
       0.2965891 -0.31329834 -0.018275002 -0.05532479
000320 d0 b0 9a 3e a7 29 32 3e 3a c2 25 be ca 3b a6 3e
       0.30213022 0.17398702 -0.16187373 0.3246749
000330 21 4d 86 bd cf f9 82 be ca 7e 5b 3e f0 71 f8 3c
       -0.0655768 -0.25581214 0.21435085 0.030327767
000340 34 32 c8 be fb 5e 82 be ae 6e 83 3e 39 dd 18 3e
       -0.39100802 -0.2546309 0.2567038 0.1492814
000350 f4 7f a5 3e ef 9b 18 3e fe 05 a9 be 8d bf 93 be
       0.32324183 0.14903234 -0.33012384 -0.2885708
000360 8d 81 0b 3e 29 57 9d 3e 54 16 4f bd 22 e0 c8 bd
       0.13623638 0.3073056 -0.050558403 -0.09808375
000370 9a 14 08 be af 60 90 be cd 1e 9e 3e 18 1d ed 3d
       -0.13289109 -0.28198764 0.30882874 0.11577815
000380 f7 af 90 be 54 88 77 3e b5 e4 82 be 9e 38 ca bc
       -0.2825925 0.24173099 -0.25565115 -0.0246852
000390 0a 05 c7 3c 7a 40 8d be af e8 f0 3d c1 1c a9 be
       0.024294395 -0.27588254 0.11763131 -0.3302975
0003a0 28 25 06 be 62 53 6e be 93 1f 45 be 78 c6 7b 3c
       -0.13100111 -0.23273996 -0.19250326 0.015367143
0003b0 f0 a9 0a 3e 21 21 26 bd 10 5f f1 bc 04 57 5f be
       0.13541389 -0.040558938 -0.029464275 -0.21810538
0003c0 6e 8a 6a 3e ee 17 86 be c2 7f 6c 3e ea d1 ac bb
       0.22904369 -0.26190132 0.2309561 -0.005274047
0003d0 ee 89 a4 3e 1f 9b 9e be 19 61 98 be 0a 23 b7 3e
       0.32136482 -0.30977723 -0.2976158 0.3576892
0003e0 38 52 ee bd da a6 87 3e 07 c9 97 be b3 28 a7 be
       -0.11636776 0.26494485 -0.2964556 -0.3264824
0003f0 cd 2d b7 be ee a3 56 3e 3e 07 a1 be ab 9b 94 3d
       -0.3577713 0.20960972 -0.31450838 0.07256254

sequential/dense_1/BiasAdd/ReadVariableOp:0 f4 [16]
000000 ff 4b cf bd b9 f3 97 3d 21 9a f8 bc d6 57 86 3d
       -0.10121917 0.07419533 -0.030346932 0.06559722
000010 88 9e c3 3d a6 6a b2 bc 9e f5 3e bd c0 e4 ae 3d
       0.09551722 -0.02177937 -0.046620958 0.08539724
000020 0d 88 e7 3d 70 bb f5 bc f7 b7 5c bd 6c 47 35 bd
       0.113052465 -0.029996604 -0.05388638 -0.044257566
000030 16 22 c5 3c 67 f7 cf bc 00 00 00 00 bd 3d e6 bc
       0.024064105 -0.025386525 0.0 -0.028105611

sequential/dense/MatMul/ReadVariableOp:0 f4 [10, 32]
000000 29 50 1e 3e 60 44 bc be 67 b8 8d 3e db 14 e6 3e
       0.15460266 -0.36770916 0.2767975 0.44937786
000010 3f 3a 3a be 3e 8a 90 3d 5a 8d 3c be 65 cc 03 3e
       -0.18186282 0.070576176 -0.18413296 0.12870939
000020 81 c7 e9 3d 03 bb f4 3d 54 87 f5 3d 58 84 dc be
       0.114150055 0.11949732 0.119887024 -0.4306972
000030 9d fc a4 3d c4 7b ae 3d 9a a9 62 3c 49 85 72 3e
       0.08055995 0.085197 0.0138343815 0.23683657
000040 5e 93 6c 3d dc 15 d8 be b0 e5 3b be 25 c1 ae 3e
       0.057757728 -0.42204177 -0.18349338 0.34131733
000050 e5 4e 7d 3e c4 7b ad 3e ff f6 4d be 55 75 be 3c
       0.24737127 0.33883488 -0.20113753 0.023249308
000060 01 9f 90 3e 7f 14 6c be 0d 63 74 3e 99 67 41 3e
       0.2824631 -0.23054694 0.2386591 0.18887176
000070 57 6c 8a 3e 30 3b c7 be 16 d9 a2 3d 3d b0 6c 3c
       0.27035782 -0.38912344 0.07951562 0.014446315
000080 29 84 67 be 08 29 2a be 7b ca 7c be 12 89 a7 3e
       -0.22609009 -0.16617215 -0.24686615 0.32721764
000090 2a 72 c3 3e 12 fa 92 3e 24 21 c2 3d 23 e7 43 bd
       0.38173038 0.28706414 0.09478977 -0.04782785
0000a0 5f fd 4f be db 74 0c bd 13 6a b1 be 2d 78 96 be
       -0.20311497 -0.03429113 -0.3465124 -0.29388562
0000b0 fc 3f 97 3e 4e 6b a5 be 89 1e 80 3e ec 3e b6 3e
       0.29541004 -0.3230843 0.25023296 0.3559488
0000c0 01 2b 9b bd d0 51 b2 3e 5b 0a 90 3e c7 44 ce 3d
       -0.07576562 0.34828043 0.281329 0.10071712
0000d0 ff 64 30 be bd 95 04 3e a5 c3 93 3e 84 51 0c 3d
       -0.17226027 0.12947746 0.28860202 0.034257427
0000e0 c3 57 09 be e9 19 c2 bd 42 ba 60 be 05 87 a0 be
       -0.13412385 -0.09477598 -0.21946052 -0.31353012
0000f0 03 ee 98 ba 60 ba 61 bd 82 82 88 be 55 ca 2c be
       -0.0011667613 -0.05510938 -0.2666207 -0.16874059
000100 3d 50 88 3e e9 8a b5 3d e0 e8 c5 3d 18 fb 14 be
       0.26623717 0.08864386 0.09663558 -0.1454891
000110 d3 17 92 be 6f 42 09 be ec 3d 26 3e 57 e3 70 bb
       -0.285338 -0.13404249 0.16234559 -0.00367566
000120 ef 34 88 3e e4 2e a6 be f5 b4 83 be 3a 59 ed bd
       0.26602885 -0.3245765 -0.25723997 -0.11589284
000130 90 69 a6 3c 55 18 61 be b2 b5 d6 3e e2 c7 76 be
       0.020314008 -0.21981938 0.41935498 -0.24099687
000140 c6 d8 c5 bd a1 8d cc 3d be fb 57 3e 45 6a e9 bd
       -0.09660487 0.09987951 0.21092126 -0.113972224
000150 bf 12 b2 3c 38 02 c5 3d c1 77 b3 be f3 eb 4e be
       0.021737454 0.09619564 -0.35052302 -0.20207195
000160 61 bc a0 bd 2d 4e 5b be 94 17 7f 3e 05 c3 9a be
       -0.078484304 -0.2141654 0.24911338 -0.30226913
000170 20 87 83 3d 08 91 0a be a6 9e 8b 3d b7 2a e2 be
       0.064222574 -0.13531888 0.06817369 -0.44173214
000180 ef 37 51 be 5c c9 87 3e c2 80 b6 be ee 58 96 be
       -0.20431493 0.26520813 -0.3564511 -0.29364723
000190 d1 27 9c 3d 3c 80 8b 3e 17 b1 b3 be 67 4b 16 3d
       0.07624782 0.27246273 -0.35096046 0.036693003
0001a0 64 a8 04 be ac cf 09 3e 9e 61 ba be 45 ab 4e be
       -0.12954861 0.13458127 -0.364026 -0.20182522
0001b0 10 d8 6e be ca 20 c6 bd 4d c9 15 3e 60 65 48 be
       -0.23324609 -0.09674223 0.14627571 -0.19569921
0001c0 dc c8 62 3e ad 15 9f 3e f9 bf 43 be 01 be 38 be
       0.22146934 0.31071225 -0.191162 -0.1804123
0001d0 fd 87 b6 3e eb ca b5 bd 96 d8 42 3d eb 8d e4 3e
       0.35650626 -0.08876594 0.047569834 0.44639525
0001e0 0c a7 47 bd 55 4c 8e 3d 0f 2e b8 be c1 8e 9a be
       -0.048743293 0.06948153 -0.3597264 -0.30187038
0001f0 55 bc 6c bd 2f 2f aa 3e 4c d0 f6 bb 48 4c 95 be
       -0.057796795 0.33239123 -0.007532155 -0.2915976
000200 46 c5 7f be c7 ec c3 bd d1 79 8c be 38 d6 98 be
       -0.24977598 -0.09566646 -0.2743669 -0.29850936
000210 de f7 a0 bb f8 b9 c6 3d 64 45 cb bd 3f c6 88 bd
       -0.0049123606 0.097034395 -0.099253446 -0.066784374
000220 a9 19 51 be 97 a0 22 be e9 b5 38 3e 59 1d bf bd
       -0.20419945 -0.15881573 0.18038143 -0.093317695
000230 85 94 27 3e 03 f9 66 be 3d ed 73 be 8f 5c 4a bd
       0.1636525 -0.22555928 -0.23820968 -0.049404677
000240 93 ab 10 3e 4d 6b 6a be 92 79 8d be a1 36 bf 3d
       0.1412795 -0.22892494 -0.27631813 0.093365915
000250 99 3f 0d 3e 1d bb 84 3e 77 f9 2f 3e 6c 1d 9e be
       0.13793792 0.25924006 0.17185007 -0.30881822
000260 a3 aa 99 be 9a 3d cc 3d 96 fe 5e be 8b df 84 be
       -0.30012998 0.09972687 -0.21776804 -0.259518
000270 d3 6c 01 3e f2 72 0a be 84 f1 b4 be d3 22 4b be
       0.1263917 -0.1352041 -0.35340512 -0.19837503
000280 83 f6 37 be 57 e3 a8 be 15 ae 25 be b1 87 94 be
       -0.1796513 -0.32985947 -0.16179688 -0.29009774
000290 82 7b 08 bd 95 54 ed 3d 3c 95 fa 3d d2 59 96 be
       -0.03332091 0.11588398 0.122354954 -0.29365402
0002a0 c1 ae 33 3d af ad 35 3c ef 34 8a be 05 e9 a4 3e
       0.04386783 0.011088773 -0.2699351 0.3220903
0002b0 dd 18 d9 3e 9f de ee 3d 8f 80 81 3e 19 b8 80 be
       0.42401782 0.11663555 0.25293395 -0.25140455
0002c0 7e 1a 7a be 28 57 2c be 92 8a 3b be 34 07 9d be
       -0.24424168 -0.16830122 -0.18314579 -0.30669558
0002d0 00 66 b6 be 53 99 37 be dc f8 25 bd c0 b0 b3 bd
       -0.35624695 -0.17929582 -0.040520534 -0.08773947
0002e0 d5 8f 20 be 61 98 7c bc 21 87 b1 bd 80 d9 0c 3e
       -0.15679868 -0.015417189 -0.08668352 0.13754845
0002f0 75 95 92 be 80 79 51 3e 2e 3c a8 be 18 9a 84 3d
       -0.28629652 0.20456505 -0.32858413 0.064747036
000300 06 b1 90 be 12 59 ae be 1c 8a 72 3e 0c 61 3c 3e
       -0.28260058 -0.3405233 0.23685497 0.18396395
000310 8d 56 c5 bc 85 d4 5f be cb 4e b8 bd f2 6e 97 3e
       -0.024089122 -0.21858414 -0.089994036 0.29576832
000320 5c 2c 0a 3e ae 77 c7 3d 98 d3 96 3e 47 cf 6a be
       0.13493484 0.09739624 0.29458308 -0.22930633
000330 5c 4c a1 3c 99 ab 20 3e ec c3 0d 3e b8 b6 c9 3e
       0.019689731 0.1569046 0.1384427 0.39397216
000340 f2 2c 66 bd f8 04 06 3e d7 09 1d 3e 69 f3 90 3d
       -0.056195207 0.13087833 0.15335785 0.07077677
000350 8a 1a 9c 3e 05 17 e7 3d a4 37 a2 3e b2 2a 18 be
       0.30488998 0.112836875 0.31683075 -0.14860037
000360 b4 39 7e 3e 89 b7 25 be e7 ae 7e 3d 4a 8b 75 be
       0.248267 -0.16183294 0.06217852 -0.23978916
000370 db 15 49 be b3 5d 64 3d 62 42 86 bc ee 9e 76 bd
       -0.19637243 0.05575342 -0.016389076 -0.06021016
000380 a4 cd a7 3e 82 e3 e5 bd 06 e9 45 3d b0 01 00 be
       0.3277408 -0.11225034 0.04831793 -0.12500644
000390 f5 c1 87 3e f4 e0 9e 3e 99 4a cf 3e cd eb c0 3e
       0.26515165 0.31031 0.404866 0.37679902
0003a0 50 de 8b be 9c db a4 bc a2 03 9d be a6 cd c7 3d
       -0.27318048 -0.02012425 -0.30666834 0.09756021
0003b0 4b fb 61 3e 2b 6f c1 3d d3 22 a0 be c9 73 de bc
       0.22068517 0.09445032 -0.3127657 -0.02715482
0003c0 d6 e5 01 3e 4e 3f 9a be 56 4f 9c 3e df f9 4b be
       0.12685332 -0.30126423 0.3052928 -0.19919537
0003d0 19 23 17 be 34 7f 16 3c 42 b0 c5 3d dd 93 89 3e
       -0.14759482 0.009185601 0.09652759 0.26870623
0003e0 b2 81 61 3e 6e 6d ac 3c 22 10 0e 3d 42 ed 99 be
       0.22022131 0.021048274 0.034683354 -0.30063826
0003f0 b6 64 69 3e be 98 a2 be 55 8b a9 bd 7e 0d 1e 3e
       0.22792324 -0.31757158 -0.082785286 0.15434834

sequential/dense/BiasAdd/ReadVariableOp:0 f4 [32]
000000 6f 98 95 bc 2b a1 86 bc 46 44 f3 bc 94 b0 ae 3d
       -0.018261163 -0.016434273 -0.029695641 0.08529773
000010 1c 38 15 3d b3 80 e9 3d 13 f1 ea bc c2 8e e3 3c
       0.036430463 0.114015006 -0.028679406 0.027778033
000020 92 35 0c 3d 42 15 e1 bc 80 75 03 bd ea e3 85 bd
       0.034230776 -0.027475957 -0.03209448 -0.06537612
000030 03 53 fd 3c 2d c2 86 bc 0a e8 0b bd ca a6 87 3d
       0.030923372 -0.016450012 -0.034156837 0.06623609
000040 f1 6e 86 bc 73 c0 5a bd 97 e3 d5 3b a1 71 0c bd
       -0.016410323 -0.05340619 0.006527375 -0.034288052
000050 53 39 e7 3c 4f 40 ba bc c1 bc 64 3d e6 a0 cc 3d
       0.028225577 -0.022735743 0.055844072 0.099916264
000060 fd 24 ed 3c 33 34 89 bd ba 66 4a bd 89 de ff bc
       0.028948301 -0.06699409 -0.049414374 -0.031234043
000070 2c 5f 56 bd a3 fa ea bc db 12 4e bc 10 5a 62 bd
       -0.052336857 -0.028683966 -0.012577738 -0.05526167
